…
  phase: TRAIN
  level: 0
  stage: ""
}
layer {
  name: "data"
  type: "ImageData"
  top: "data"
  top: "label"
  transform_param {
    mirror: true
    crop_size: 299
    mean_value: 104
    mean_value: 117
    mean_value: 123
    contrast_brightness_adjustment: true
    min_side_min: 328
    min_contrast: 0.8
    max_contrast: 1.2
    max_brightness_shift: 5
    apply_probability: 0.5
    debug_params: false
    max_color_shift: 5
    min_side_max: 380
  }
  image_data_param {
    source: "train.txt"
    batch_size: 5
    shuffle: true
  }
}
layer {
  name: "conv1_3x3_s2"
  type: "Convolution"
  bottom: "data"
  top: "conv1_3x3_s2"
  param {
    lr_mult: 1
    decay_mult: 1
  }
  param {
    lr_mult: 2
    decay_mult: 0
  }
  convolution_param {
    num_output: 32
    pad: 0
    kernel_size: 3
    stride: 2
    weight_filler {
      type: "xavier"
      std: 0.01
    }
    bias_filler {
      type: "constant"
      value: 0.2
    }
  }
}
layer {
  name: "conv1_3x3_s2_bn"
  type: "BatchNorm"
  bottom: "conv1_3x3_s2"
  top: "conv1_3x3_s2"
  param {
    lr_mult: 0
    decay_mult: 0
  }
  param {
    lr_mult: 0
    decay_mult: 0
  }
  param {
    lr_mult: 0
    decay_mult: 0
  }
  batch_norm_param {
    use_global_stats: false
    moving_average_fraction: 0.95
  }
}
layer {
  name: "conv1_3x3_s2_scale"
  type: "Scale"
  bottom: "conv1_3x3_s2"
  top: "conv1_3x3_s2"
  scale_param {
    bias_term: true
  }
}
layer {
  name: "conv1_3x3_relu"
  type: "ReLU"
  bottom: "conv1_3x3_s2"
  top: "conv1_3x3_s2"
}
layer {
  name: "conv2_3x3_s1"
  type: "Convolution"
  bottom: "conv1_3x3_s2"
  top: "conv2_3x3_s1"
  param {
    lr_mult: 1
    decay_mult: 1
  }
  param {
    lr_mult: 2
    decay_mult: 0
  }
  convolution_param {
    num_output: 32
    pad: 0
    kernel_size: 3
    stride: 1
    weight_filler {
      type: "xavier"
      std: 0.01
    }
    bias_filler {
      type: "constant"
      value: 0.2
    }
  }
}
layer {
  name: "conv2_3x3_s1_bn"
  type: "BatchNorm"
  bottom: "conv2_3x3_s1"
  top: "conv2_3x3_s1"
  param {
    lr_mult: 0
    decay_mult: 0
  }
  param {
    lr_mult: 0
    decay_mult: 0
  }
  param {
    lr_mult: 0
    decay_mult: 0
  }
  batch_norm_param {
    use_global_stats: false
    moving_average_fraction: 0.95
  }
}
layer {
  name: "conv2_3x3_s1_scale"
  type: "Scale"
  bottom: "conv2_3x3_s1"
  top: "conv2_3x3_s1"
  scale_param {
    bias_term: true
  }
}
layer {
  name: "conv2_3x3_relu"
  type: "ReLU"
  bottom: "conv2_3x3_s1"
  top: "conv2_3x3_s1"
}
layer {
  name: "conv3_3x3_s1"
  type: "Convolution"
  bottom: "conv2_3x3_s1"
  top: "conv3_3x3_s1"
  param {
    lr_mult: 1
    decay_mult: 1
  }
  param {
    lr_mult: 2
    decay_mult: 0
  }
  convolution_param {
    num_output: 64
    pad: 1
    kernel_size: 3
    stride: 1
    weight_filler {
      type: "xavier"
      std: 0.01
    }
    bias_filler {
      type: "constant"
      value: 0.2
    }
  }
}
layer {
  name: "conv3_3x3_s1_bn"
  type: "BatchNorm"
  bottom: "conv3_3x3_s1"
  top: "conv3_3x3_s1"
  param {
    lr_mult: 0
    decay_mult: 0
  }
  param {
    lr_mult: 0
    decay_mult: 0
  }
  param {
    lr_mult: 0
    decay_mult: 0
  }
  batch_norm_param {
    use_global_stats: false
    moving_average_fraction: 0.95
  }
}
layer {
  name: "conv3_3x3_s1_scale"
  type: "Scale"
  bottom: "conv3_3x3_s1"
  top: "conv3_3x3_s1"
  scale_param {
    bias_term: true
  }
}
layer {
  name: "conv3_3x3_relu"
  type: "ReLU"
  bottom: "conv3_3x3_s1"
  top: "conv3_3x3_s1"
}
layer {
  name: "pool1_3x3_s2"
  type: "Pooling"
  bottom: "conv3_3x3_s1"
  top: "pool1_3x3_s2"
  pooling_param {
    pool: MAX
    kernel_size: 3
    stride: 2
  }
}
layer {
  name: "conv4_3x3_reduce"
  type: "Convolution"
  bottom: "pool1_3x3_s2"
  top: "conv4_3x3_reduce"
  param {
    lr_mult: 1
    decay_mult: 1
  }
  param {
    lr_mult: 2
    decay_mult: 0
  }
  convolution_param {
    num_output: 80
    pad: 0
    kernel_size: 1
    stride: 1
    weight_filler {
      type: "xavier"
      std: 0.01
    }
    bias_filler {
      type: "constant"
      value: 0.2
    }
  }
}
layer {
  name: "conv4_3x3_reduce_bn"
  type: "BatchNorm"
  bottom: "conv4_3x3_reduce"
  top: "conv4_3x3_reduce"
  param {
    lr_mult: 0
    decay_mult: 0
  }
  param {
    lr_mult: 0
    decay_mult: 0
  }
  param {
    lr_mult: 0
    decay_mult: 0
  }
  batch_norm_param {
    use_global_stats: false
    moving_average_fraction: 0.95
  }
}
layer {
  name: "conv4_3x3_reduce_scale"
  type: "Scale"
  bottom: "conv4_3x3_reduce"
  top: "conv4_3x3_reduce"
  scale_param {
    bias_term: true
  }
}
layer {
  name: "conv4_3x3_reduce_relu"
  type: "ReLU"
  bottom: "conv4_3x3_reduce"
  top: "conv4_3x3_reduce"
}
layer {
  name: "conv4_3x3"
  type: "Convolution"
  bottom: "conv4_3x3_reduce"
  top: "conv4_3x3"
  param {
    lr_mult: 1
    decay_mult: 1
  }
  param {
    lr_mult: 2
    decay_mult: 0
  }
  convolution_param {
    num_output: 192
    pad: 0
    kernel_size: 3
    stride: 1
    weight_filler {
      type: "xavier"
      std: 0.01
    }
    bias_filler {
      type: "constant"
      value: 0.2
    }
  }
}
layer {
  name: "conv4_3x3_bn"
  type: "BatchNorm"
  bottom: "conv4_3x3"
  top: "conv4_3x3"
  param {
    lr_mult: 0
    decay_mult: 0
  }
  param {
    lr_mult: 0
    decay_mult: 0
  }
  param {
    lr_mult: 0
    decay_mult: 0
  }
  batch_norm_param {
    use_global_stats: false
    moving_average_fraction: 0.95
  }
}
layer {
  name: "conv4_3x3_scale"
  type: "Scale"
  bottom: "conv4_3x3"
  top: "conv4_3x3"
  scale_param {
    bias_term: true
  }
}
layer {
  name: "conv4_relu_3x3"
  type: "ReLU"
  bottom: "conv4_3x3"
  top: "conv4_3x3"
}
layer {
  name: "pool2_3x3_s2"
  type: "Pooling"
  bottom: "conv4_3x3"
  top: "pool2_3x3_s2"
  pooling_param {
    pool: MAX
    kernel_size: 3
    stride: 2
  }
}
layer {
  name: "conv5_1x1"
  type: "Convolution"
  bottom: "pool2_3x3_s2"
  top: "conv5_1x1"
  param {
    lr_mult: 1
    decay_mult: 1
  }
  param {
    lr_mult: 2
    decay_mult: 0
  }
  convolution_param {
    num_output: 96
    pad: 0
    kernel_size: 1
    stride: 1
    weight_filler {
      type: "xavier"
      std: 0.01
    }
    bias_filler {
      type: "constant"
      value: 0.2
    }
  }
}
layer {
  name: "conv5_1x1_bn"
  type: "BatchNorm"
  bottom: "conv5_1x1"
  top: "conv5_1x1"
  param {
    lr_mult: 0
    decay_mult: 0
  }
  param {
    lr_mult: 0
    decay_mult: 0
  }
  param {
    lr_mult: 0
    decay_mult: 0
  }
  batch_norm_param {
    use_global_stats: false
    moving_average_fraction: 0.95
  }
}
layer {
  name: "conv5_1x1_scale"
  type: "Scale"
  bottom: "conv5_1x1"
  top: "conv5_1x1"
  scale_param {
    bias_term: true
  }
}
layer {
  name: "conv5_1x1_relu"
  type: "ReLU"
  bottom: "conv5_1x1"
  top: "conv5_1x1"
}
layer {
  name: "conv5_5x5_reduce"
  type: "Convolution"
  bottom: "pool2_3x3_s2"
  top: "conv5_5x5_reduce"
  param {
    lr_mult: 1
    decay_mult: 1
  }
  param {
    lr_mult: 2
    decay_mult: 0
  }
  convolution_param {
    num_output: 48
    pad: 0
    kernel_size: 1
    stride: 1
    weight_filler {
      type: "xavier"
      std: 0.01
    }
    bias_filler {
      type: "constant"
      value: 0.2
    }
  }
}
layer {
  name: "conv5_5x5_reduce_bn"
  type: "BatchNorm"
  bottom: "conv5_5x5_reduce"
  top: "conv5_5x5_reduce"
  param {
    lr_mult: 0
    decay_mult: 0
  }
  param {
    lr_mult: 0
    decay_mult: 0
  }
  param {
    lr_mult: 0
    decay_mult: 0
  }
  batch_norm_param {
    use_global_stats: false
    moving_average_fraction: 0.95
  }
}
layer {
  name: "conv5_5x5_reduce_scale"
  type: "Scale"
  bottom: "conv5_5x5_reduce"
  top: "conv5_5x5_reduce"
  scale_param {
    bias_term: true
  }
}
layer {
  name: "conv5_5x5_reduce_relu"
  type: "ReLU"
  bottom: "conv5_5x5_reduce"
  top: "conv5_5x5_reduce"
}
layer {
  name: "conv5_5x5"
  type: "Convolution"
  bottom: "conv5_5x5_reduce"
  top: "conv5_5x5"
  param {
    lr_mult: 1
    decay_mult: 1
  }
  param {
    lr_mult: 2
    decay_mult: 0
  }
  convolution_param {
    num_output: 64
    pad: 2
    kernel_size: 5
    stride: 1
    weight_filler {
      type: "xavier"
      std: 0.01
    }
    bias_filler {
      type: "constant"
      value: 0.2
    }
  }
}
layer {
  name: "conv5_5x5_bn"
  type: "BatchNorm"
  bottom: "conv5_5x5"
  top: "conv5_5x5"
  param {
    lr_mult: 0
    decay_mult: 0
  }
  param {
    lr_mult: 0
    decay_mult: 0
  }
  param {
    lr_mult: 0
    decay_mult: 0
  }
  batch_norm_param {
    use_global_stats: false
    moving_average_fraction: 0.95
  }
}
layer {
  name: "conv5_5x5_scale"
  type: "Scale"
  bottom: "conv5_5x5"
  top: "conv5_5x5"
  scale_param {
    bias_term: true
  }
}
layer {
  name: "conv5_5x5_relu"
  type: "ReLU"
  bottom: "conv5_5x5"
  top: "conv5_5x5"
}
layer {
  name: "conv5_3x3_reduce"
  type: "Convolution"
  bottom: "pool2_3x3_s2"
  top: "conv5_3x3_reduce"
  param {
    lr_mult: 1
    decay_mult: 1
  }
  param {
    lr_mult: 2
    decay_mult: 0
  }
  convolution_param {
    num_output: 64
    pad: 0
    kernel_size: 1
    stride: 1
    weight_filler {
      type: "xavier"
      std: 0.01
    }
    bias_filler {
      type: "constant"
      value: 0.2
    }
  }
}
layer {
  name: "conv5_3x3_reduce_bn"
  type: "BatchNorm"
  bottom: "conv5_3x3_reduce"
  top: "conv5_3x3_reduce"
  param {
    lr_mult: 0
    decay_mult: 0
  }
  param {
    lr_mult: 0
    decay_mult: 0
  }
  param {
    lr_mult: 0
    decay_mult: 0
  }
  batch_norm_param {
    use_global_stats: false
    moving_average_fraction: 0.95
  }
}
layer {
  name: "conv5_3x3_reduce_scale"
  type: "Scale"
  bottom: "conv5_3x3_reduce"
  top: "conv5_3x3_reduce"
  scale_param {
    bias_term: true
  }
}
layer {
  name: "conv5_3x3_reduce_relu"
  type: "ReLU"
  bottom: "conv5_3x3_reduce"
  top: "conv5_3x3_reduce"
}
layer {
  name: "conv5_3x3"
  type: "Convolution"
  bottom: "conv5_3x3_reduce"
  top: "conv5_3x3"
  param {
    lr_mult: 1
    decay_mult: 1
  }
  param {
    lr_mult: 2
    decay_mult: 0
  }
  convolution_param {
    num_output: 96
    pad: 1
    kernel_size: 3
    stride: 1
    weight_filler {
      type: "xavier"
      std: 0.01
    }
    bias_filler {
      type: "constant"
      value: 0.2
    }
  }
}
layer {
  name: "conv5_3x3_bn"
  type: "BatchNorm"
  bottom: "conv5_3x3"
  top: "conv5_3x3"
  param {
    lr_mult: 0
    decay_mult: 0
  }
  param {
    lr_mult: 0
    decay_mult: 0
  }
  param {
    lr_mult: 0
    decay_mult: 0
  }
  batch_norm_param {
    use_global_stats: false
    moving_average_fraction: 0.95
  }
}
layer {
  name: "conv5_3x3_scale"
  type: "Scale"
  bottom: "conv5_3x3"
  top: "conv5_3x3"
  scale_param {
    bias_term: true
  }
}
layer {
  name: "conv5_3x3_relu"
  type: "ReLU"
  bottom: "conv5_3x3"
  top: "conv5_3x3"
}
layer {
  name: "conv5_3x3_2"
  type: "Convolution"
  bottom: "conv5_3x3"
  top: "conv5_3x3_2"
  param {
    lr_mult: 1
    decay_mult: 1
  }
  param {
    lr_mult: 2
    decay_mult: 0
  }
  convolution_param {
    num_output: 96
    pad: 1
    kernel_size: 3
    stride: 1
    weight_filler {
      type: "xavier"
      std: 0.01
    }
    bias_filler {
      type: "constant"
      value: 0.2
    }
  }
}
layer {
  name: "conv5_3x3_2_bn"
  type: "BatchNorm"
  bottom: "conv5_3x3_2"
  top: "conv5_3x3_2"
  param {
    lr_mult: 0
    decay_mult: 0
  }
  param {
    lr_mult: 0
    decay_mult: 0
  }
  param {
    lr_mult: 0
    decay_mult: 0
  }
  batch_norm_param {
    use_global_stats: false
    moving_average_fraction: 0.95
  }
}
layer {
  name: "conv5_3x3_2_scale"
  type: "Scale"
  bottom: "conv5_3x3_2"
  top: "conv5_3x3_2"
  scale_param {
    bias_term: true
  }
}
layer {
  name: "conv5_3x3_2_relu"
  type: "ReLU"
  bottom: "conv5_3x3_2"
  top: "conv5_3x3_2"
}
layer {
  name: "ave_pool"
  type: "Pooling"
  bottom: "pool2_3x3_s2"
  top: "ave_pool"
  pooling_param {
    pool: AVE
    kernel_size: 3
    stride: 1
    pad: 1
  }
}
layer {
  name: "conv5_1x1_ave"
  type: "Convolution"
  bottom: "ave_pool"
  top: "conv5_1x1_ave"
  param {
    lr_mult: 1
    decay_mult: 1
  }
  param {
    lr_mult: 2
    decay_mult: 0
  }
  convolution_param {
    num_output: 64
    pad: 0
    kernel_size: 1
    stride: 1
    weight_filler {
      type: "xavier"
      std: 0.01
    }
    bias_filler {
      type: "constant"
      value: 0.2
    }
  }
}
layer {
  name: "conv5_1x1_ave_bn"
  type: "BatchNorm"
  bottom: "conv5_1x1_ave"
  top: "conv5_1x1_ave"
  param {
    lr_mult: 0
    decay_mult: 0
  }
  param {
    lr_mult: 0
    decay_mult: 0
  }
  param {
    lr_mult: 0
    decay_mult: 0
  }
  batch_norm_param {
    use_global_stats: false
    moving_average_fraction: 0.95
  }
}
layer {
  name: "conv5_1x1_ave_scale"
  type: "Scale"
  bottom: "conv5_1x1_ave"
  top: "conv5_1x1_ave"
  scale_param {
    bias_term: true
  }
}
layer {
  name: "conv5_1x1_ave_relu"
  type: "ReLU"
  bottom: "conv5_1x1_ave"
  top: "conv5_1x1_ave"
}
layer {
  name: "stem_concat"
  type: "Concat"
  bottom: "conv5_1x1"
  bottom: "conv5_5x5"
  bottom: "conv5_3x3_2"
  bottom: "conv5_1x1_ave"
  top: "stem_concat"
}
layer {
  name: "inception_resnet_v2_a1_1x1"
  type: "Convolution"
  bottom: "stem_concat"
  top: "inception_resnet_v2_a1_1x1"
  param {
    lr_mult: 1
    decay_mult: 1
  }
  param {
    lr_mult: 2
    decay_mult: 0
  }
  convolution_param {
    num_output: 32
    pad: 0
    kernel_size: 1
    stride: 1
    weight_filler {
      type: "xavier"
      std: 0.01
    }
    bias_filler {
      type: "constant"
      value: 0.2
    }
  }
}
layer {
  name: "inception_resnet_v2_a1_1x1_bn"
  type: "BatchNorm"
  bottom: "inception_resnet_v2_a1_1x1"
  top: "inception_resnet_v2_a1_1x1"
  param {
    lr_mult: 0
    decay_mult: 0
  }
  param {
    lr_mult: 0
    decay_mult: 0
  }
  param {
    lr_mult: 0
    decay_mult: 0
  }
  batch_norm_param {
    use_global_stats: false
    moving_average_fraction: 0.95
  }
}
layer {
  name: "inception_resnet_v2_a1_1x1_scale"
  type: "Scale"
  bottom: "inception_resnet_v2_a1_1x1"
  top: "inception_resnet_v2_a1_1x1"
  scale_param {
    bias_term: true
  }
}
layer {
  name: "inception_resnet_v2_a1_1x1_relu"
  type: "ReLU"
  bottom: "inception_resnet_v2_a1_1x1"
  top: "inception_resnet_v2_a1_1x1"
}
layer {
  name: "inception_resnet_v2_a1_3x3_reduce"
  type: "Convolution"
  bottom: "stem_concat"
  top: "inception_resnet_v2_a1_3x3_reduce"
  param {
    lr_mult: 1
    decay_mult: 1
  }
  param {
    lr_mult: 2
    decay_mult: 0
  }
  convolution_param {
    num_output: 32
    pad: 0
    kernel_size: 1
    stride: 1
    weight_filler {
      type: "xavier"
      std: 0.01
    }
    bias_filler {
      type: "constant"
      value: 0.2
    }
  }
}
layer {
  name: "inception_resnet_v2_a1_3x3_reduce_bn"
  type: "BatchNorm"
  bottom: "inception_resnet_v2_a1_3x3_reduce"
  top: "inception_resnet_v2_a1_3x3_reduce"
  param {
    lr_mult: 0
    decay_mult: 0
  }
  param {
    lr_mult: 0
    decay_mult: 0
  }
  param {
    lr_mult: 0
    decay_mult: 0
  }
  batch_norm_param {
    use_global_stats: false
    moving_average_fraction: 0.95
  }
}
layer {
  name: "inception_resnet_v2_a1_3x3_reduce_scale"
  type: "Scale"
  bottom: "inception_resnet_v2_a1_3x3_reduce"
  top: "inception_resnet_v2_a1_3x3_reduce"
  scale_param {
    bias_term: true
  }
}
layer {
  name: "inception_resnet_v2_a1_3x3_reduce_relu"
  type: "ReLU"
  bottom: "inception_resnet_v2_a1_3x3_reduce"
  top: "inception_resnet_v2_a1_3x3_reduce"
}
layer {
  name: "inception_resnet_v2_a1_3x3"
  type: "Convolution"
  bottom: "inception_resnet_v2_a1_3x3_reduce"
  top: "inception_resnet_v2_a1_3x3"
  param {
    lr_mult: 1
    decay_mult: 1
  }
  param {
    lr_mult: 2
    decay_mult: 0
  }
  convolution_param {
    num_output: 32
    pad: 1
    kernel_size: 3
    stride: 1
    weight_filler {
      type: "xavier"
      std: 0.01
    }
    bias_filler {
      type: "constant"
      value: 0.2
    }
  }
}
layer {
  name: "inception_resnet_v2_a1_3x3_bn"
  type: "BatchNorm"
  bottom: "inception_resnet_v2_a1_3x3"
  top: "inception_resnet_v2_a1_3x3"
  param {
    lr_mult: 0
    decay_mult: 0
  }
  param {
    lr_mult: 0
    decay_mult: 0
  }
  param {
    lr_mult: 0
    decay_mult: 0
  }
  batch_norm_param {
    use_global_stats: false
    moving_average_fraction: 0.95
  }
}
layer {
  name: "inception_resnet_v2_a1_3x3_scale"
  type: "Scale"
  bottom: "inception_resnet_v2_a1_3x3"
  top: "inception_resnet_v2_a1_3x3"
  scale_param {
    bias_term: true
  }
}
layer {
  name: "inception_resnet_v2_a1_3x3_relu"
  type: "ReLU"
  bottom: "inception_resnet_v2_a1_3x3"
  top: "inception_resnet_v2_a1_3x3"
}
layer {
  name: "inception_resnet_v2_a1_3x3_2_reduce"
  type: "Convolution"
  bottom: "stem_concat"
  top: "inception_resnet_v2_a1_3x3_2_reduce"
  param {
    lr_mult: 1
    decay_mult: 1
  }
  param {
    lr_mult: 2
    decay_mult: 0
  }
  convolution_param {
    num_output: 32
    pad: 0
    kernel_size: 1
    stride: 1
    weight_filler {
      type: "xavier"
      std: 0.01
    }
    bias_filler {
      type: "constant"
      value: 0.2
    }
  }
}
layer {
  name: "inception_resnet_v2_a1_3x3_2_reduce_bn"
  type: "BatchNorm"
  bottom: "inception_resnet_v2_a1_3x3_2_reduce"
  top: "inception_resnet_v2_a1_3x3_2_reduce"
  param {
    lr_mult: 0
    decay_mult: 0
  }
  param {
    lr_mult: 0
    decay_mult: 0
  }
  param {
    lr_mult: 0
    decay_mult: 0
  }
  batch_norm_param {
    use_global_stats: false
    moving_average_fraction: 0.95
  }
}
layer {
  name: "inception_resnet_v2_a1_3x3_2_reduce_scale"
  type: "Scale"
  bottom: "inception_resnet_v2_a1_3x3_2_reduce"
  top: "inception_resnet_v2_a1_3x3_2_reduce"
  scale_param {
    bias_term: true
  }
}
layer {
  name: "inception_resnet_v2_a1_3x3_2_reduce_relu"
  type: "ReLU"
  bottom: "inception_resnet_v2_a1_3x3_2_reduce"
  top: "inception_resnet_v2_a1_3x3_2_reduce"
}
layer {
  name: "inception_resnet_v2_a1_3x3_2"
  type: "Convolution"
  bottom: "inception_resnet_v2_a1_3x3_2_reduce"
  top: "inception_resnet_v2_a1_3x3_2"
  param {
    lr_mult: 1
    decay_mult: 1
  }
  param {
    lr_mult: 2
    decay_mult: 0
  }
  convolution_param {
    num_output: 48
    pad: 1
    kernel_size: 3
    stride: 1
    weight_filler {
      type: "xavier"
      std: 0.01
    }
    bias_filler {
      type: "constant"
      value: 0.2
    }
  }
}
layer {
  name: "inception_resnet_v2_a1_3x3_2_bn"
  type: "BatchNorm"
  bottom: "inception_resnet_v2_a1_3x3_2"
  top: "inception_resnet_v2_a1_3x3_2"
  param {
    lr_mult: 0
    decay_mult: 0
  }
  param {
    lr_mult: 0
    decay_mult: 0
  }
  param {
    lr_mult: 0
    decay_mult: 0
  }
  batch_norm_param {
    use_global_stats: false
    moving_average_fraction: 0.95
  }
}
layer {
  name: "inception_resnet_v2_a1_3x3_2_scale"
  type: "Scale"
  bottom: "inception_resnet_v2_a1_3x3_2"
  top: "inception_resnet_v2_a1_3x3_2"
  scale_param {
    bias_term: true
  }
}
layer {
  name: "inception_resnet_v2_a1_3x3_2_relu"
  type: "ReLU"
  bottom: "inception_resnet_v2_a1_3x3_2"
  top: "inception_resnet_v2_a1_3x3_2"
}
layer {
  name: "inception_resnet_v2_a1_3x3_3"
  type: "Convolution"
  bottom: "inception_resnet_v2_a1_3x3_2"
  top: "inception_resnet_v2_a1_3x3_3"
  param {
    lr_mult: 1
    decay_mult: 1
  }
  param {
    lr_mult: 2
    decay_mult: 0
  }
  convolution_param {
    num_output: 64
    pad: 1
    kernel_size: 3
    stride: 1
    weight_filler {
      type: "xavier"
      std: 0.01
    }
    bias_filler {
      type: "constant"
      value: 0.2
    }
  }
}
layer {
  name: "inception_resnet_v2_a1_3x3_3_bn"
  type: "BatchNorm"
  bottom: "inception_resnet_v2_a1_3x3_3"
  top: "inception_resnet_v2_a1_3x3_3"
  param {
    lr_mult: 0
    decay_mult: 0
  }
  param {
    lr_mult: 0
    decay_mult: 0
  }
  param {
    lr_mult: 0
    decay_mult: 0
  }
  batch_norm_param {
    use_global_stats: false
    moving_average_fraction: 0.95
  }
}
layer {
  name: "inception_resnet_v2_a1_3x3_3_scale"
  type: "Scale"
  bottom: "inception_resnet_v2_a1_3x3_3"
  top: "inception_resnet_v2_a1_3x3_3"
  scale_param {
    bias_term: true
  }
}
layer {
  name: "inception_resnet_v2_a1_3x3_3_relu"
  type: "ReLU"
  bottom: "inception_resnet_v2_a1_3x3_3"
  top: "inception_resnet_v2_a1_3x3_3"
}
layer {
  name: "inception_resnet_v2_a1_concat"
  type: "Concat"
  bottom: "inception_resnet_v2_a1_1x1"
  bottom: "inception_resnet_v2_a1_3x3"
  bottom: "inception_resnet_v2_a1_3x3_3"
  top: "inception_resnet_v2_a1_concat"
}
layer {
  name: "inception_resnet_v2_a1_up"
  type: "Convolution"
  bottom: "inception_resnet_v2_a1_concat"
  top: "inception_resnet_v2_a1_up"
  param {
    lr_mult: 1
    decay_mult: 1
  }
  param {
    lr_mult: 2
    decay_mult: 0
  }
  convolution_param {
    num_output: 320
    pad: 0
    kernel_size: 1
    stride: 1
    weight_filler {
      type: "xavier"
      std: 0.01
    }
    bias_filler {
      type: "constant"
      value: 0.2
    }
  }
}
layer {
  name: "inception_resnet_v2_a1_up_bn"
  type: "BatchNorm"
  bottom: "inception_resnet_v2_a1_up"
  top: "inception_resnet_v2_a1_up"
  param {
    lr_mult: 0
    decay_mult: 0
  }
  param {
    lr_mult: 0
    decay_mult: 0
  }
  param {
    lr_mult: 0
    decay_mult: 0
  }
  batch_norm_param {
    use_global_stats: false
    moving_average_fraction: 0.95
  }
}
layer {
  name: "inception_resnet_v2_a1_up_scale"
  type: "Scale"
  bottom: "inception_resnet_v2_a1_up"
  top: "inception_resnet_v2_a1_up"
  scale_param {
    bias_term: true
  }
}
layer {
  name: "inception_resnet_v2_a1_residual_eltwise"
  type: "Eltwise"
  bottom: "stem_concat"
  bottom: "inception_resnet_v2_a1_up"
  top: "inception_resnet_v2_a1_residual_eltwise"
  eltwise_param {
    operation: SUM
  }
}
layer {
  name: "inception_resnet_v2_a1_residual_eltwise_relu"
  type: "ReLU"
  bottom: "inception_resnet_v2_a1_residual_eltwise"
  top: "inception_resnet_v2_a1_residual_eltwise"
}
layer {
  name: "inception_resnet_v2_a2_1x1"
  type: "Convolution"
  bottom: "inception_resnet_v2_a1_residual_eltwise"
  top: "inception_resnet_v2_a2_1x1"
  param {
    lr_mult: 1
    decay_mult: 1
  }
  param {
    lr_mult: 2
    decay_mult: 0
  }
  convolution_param {
    num_output: 32
    pad: 0
    kernel_size: 1
    stride: 1
    weight_filler {
      type: "xavier"
      std: 0.01
    }
    bias_filler {
      type: "constant"
      value: 0.2
    }
  }
}
layer {
  name: "inception_resnet_v2_a2_1x1_bn"
  type: "BatchNorm"
  bottom: "inception_resnet_v2_a2_1x1"
  top: "inception_resnet_v2_a2_1x1"
  param {
    lr_mult: 0
    decay_mult: 0
  }
  param {
    lr_mult: 0
    decay_mult: 0
  }
  param {
    lr_mult: 0
    decay_mult: 0
  }
  batch_norm_param {
    use_global_stats: false
    moving_average_fraction: 0.95
  }
}
layer {
  name: "inception_resnet_v2_a2_1x1_scale"
  type: "Scale"
  bottom: "inception_resnet_v2_a2_1x1"
  top: "inception_resnet_v2_a2_1x1"
  scale_param {
    bias_term: true
  }
}
layer {
  name: "inception_resnet_v2_a2_1x1_relu"
  type: "ReLU"
  bottom: "inception_resnet_v2_a2_1x1"
  top: "inception_resnet_v2_a2_1x1"
}
layer {
  name: "inception_resnet_v2_a2_3x3_reduce"
  type: "Convolution"
  bottom: "inception_resnet_v2_a1_residual_eltwise"
  top: "inception_resnet_v2_a2_3x3_reduce"
  param {
    lr_mult: 1
    decay_mult: 1
  }
  param {
    lr_mult: 2
    decay_mult: 0
  }
  convolution_param {
    num_output: 32
    pad: 0
    kernel_size: 1
    stride: 1
    weight_filler {
      type: "xavier"
      std: 0.01
    }
    bias_filler {
      type: "constant"
      value: 0.2
    }
  }
}
layer {
  name: "inception_resnet_v2_a2_3x3_reduce_bn"
  type: "BatchNorm"
  bottom: "inception_resnet_v2_a2_3x3_reduce"
  top: "inception_resnet_v2_a2_3x3_reduce"
  param {
    lr_mult: 0
    decay_mult: 0
  }
  param {
    lr_mult: 0
    decay_mult: 0
  }
  param {
    lr_mult: 0
    decay_mult: 0
  }
  batch_norm_param {
    use_global_stats: false
    moving_average_fraction: 0.95
  }
}
layer {
  name: "inception_resnet_v2_a2_3x3_reduce_scale"
  type: "Scale"
  bottom: "inception_resnet_v2_a2_3x3_reduce"
  top: "inception_resnet_v2_a2_3x3_reduce"
  scale_param {
    bias_term: true
  }
}
layer {
  name: "inception_resnet_v2_a2_3x3_reduce_relu"
  type: "ReLU"
  bottom: "inception_resnet_v2_a2_3x3_reduce"
  top: "inception_resnet_v2_a2_3x3_reduce"
}
layer {
  name: "inception_resnet_v2_a2_3x3"
  type: "Convolution"
  bottom: "inception_resnet_v2_a2_3x3_reduce"
  top: "inception_resnet_v2_a2_3x3"
  param {
    lr_mult: 1
    decay_mult: 1
  }
  param {
    lr_mult: 2
    decay_mult: 0
  }
  convolution_param {
    num_output: 32
    pad: 1
    kernel_size: 3
    stride: 1
    weight_filler {
      type: "xavier"
      std: 0.01
    }
    bias_filler {
      type: "constant"
      value: 0.2
    }
  }
}
layer {
  name: "inception_resnet_v2_a2_3x3_bn"
  type: "BatchNorm"
  bottom: "inception_resnet_v2_a2_3x3"
  top: "inception_resnet_v2_a2_3x3"
  param {
    lr_mult: 0
    decay_mult: 0
  }
  param {
    lr_mult: 0
    decay_mult: 0
  }
  param {
    lr_mult: 0
    decay_mult: 0
  }
  batch_norm_param {
    use_global_stats: false
    moving_average_fraction: 0.95
  }
}
layer {
  name: "inception_resnet_v2_a2_3x3_scale"
  type: "Scale"
  bottom: "inception_resnet_v2_a2_3x3"
  top: "inception_resnet_v2_a2_3x3"
  scale_param {
    bias_term: true
  }
}
layer {
  name: "inception_resnet_v2_a2_3x3_relu"
  type: "ReLU"
  bottom: "inception_resnet_v2_a2_3x3"
  top: "inception_resnet_v2_a2_3x3"
}
layer {
  name: "inception_resnet_v2_a2_3x3_2_reduce"
  type: "Convolution"
  bottom: "inception_resnet_v2_a1_residual_eltwise"
  top: "inception_resnet_v2_a2_3x3_2_reduce"
  param {
    lr_mult: 1
    decay_mult: 1
  }
  param {
    lr_mult: 2
    decay_mult: 0
  }
  convolution_param {
    num_output: 32
    pad: 0
    kernel_size: 1
    stride: 1
    weight_filler {
      type: "xavier"
      std: 0.01
    }
    bias_filler {
      type: "constant"
      value: 0.2
    }
  }
}
layer {
  name: "inception_resnet_v2_a2_3x3_2_reduce_bn"
  type: "BatchNorm"
  bottom: "inception_resnet_v2_a2_3x3_2_reduce"
  top: "inception_resnet_v2_a2_3x3_2_reduce"
  param {
    lr_mult: 0
    decay_mult: 0
  }
  param {
    lr_mult: 0
    decay_mult: 0
  }
  param {
    lr_mult: 0
    decay_mult: 0
  }
  batch_norm_param {
    use_global_stats: false
    moving_average_fraction: 0.95
  }
}
layer {
  name: "inception_resnet_v2_a2_3x3_2_reduce_scale"
  type: "Scale"
  bottom: "inception_resnet_v2_a2_3x3_2_reduce"
  top: "inception_resnet_v2_a2_3x3_2_reduce"
  scale_param {
    bias_term: true
  }
}
layer {
  name: "inception_resnet_v2_a2_3x3_2_reduce_relu"
  type: "ReLU"
  bottom: "inception_resnet_v2_a2_3x3_2_reduce"
  top: "inception_resnet_v2_a2_3x3_2_reduce"
}
layer {
  name: "inception_resnet_v2_a2_3x3_2"
  type: "Convolution"
  bottom: "inception_resnet_v2_a2_3x3_2_reduce"
  top: "inception_resnet_v2_a2_3x3_2"
  param {
    lr_mult: 1
    decay_mult: 1
  }
  param {
    lr_mult: 2
    decay_mult: 0
  }
  convolution_param {
    num_output: 48
    pad: 1
    kernel_size: 3
    stride: 1
    weight_filler {
      type: "xavier"
      std: 0.01
    }
    bias_filler {
      type: "constant"
      value: 0.2
    }
  }
}
layer {
  name: "inception_resnet_v2_a2_3x3_2_bn"
  type: "BatchNorm"
  bottom: "inception_resnet_v2_a2_3x3_2"
  top: "inception_resnet_v2_a2_3x3_2"
  param {
    lr_mult: 0
    decay_mult: 0
  }
  param {
    lr_mult: 0
    decay_mult: 0
  }
  param {
    lr_mult: 0
    decay_mult: 0
  }
  batch_norm_param {
    use_global_stats: false
    moving_average_fraction: 0.95
  }
}
layer {
  name: "inception_resnet_v2_a2_3x3_2_scale"
  type: "Scale"
  bottom: "inception_resnet_v2_a2_3x3_2"
  top: "inception_resnet_v2_a2_3x3_2"
  scale_param {
    bias_term: true
  }
}
layer {
  name: "inception_resnet_v2_a2_3x3_2_relu"
  type: "ReLU"
  bottom: "inception_resnet_v2_a2_3x3_2"
  top: "inception_resnet_v2_a2_3x3_2"
}
layer {
  name: "inception_resnet_v2_a2_3x3_3"
  type: "Convolution"
  bottom: "inception_resnet_v2_a2_3x3_2"
  top: "inception_resnet_v2_a2_3x3_3"
  param {
    lr_mult: 1
    decay_mult: 1
  }
  param {
    lr_mult: 2
    decay_mult: 0
  }
  convolution_param {
    num_output: 64
    pad: 1
    kernel_size: 3
    stride: 1
    weight_filler {
      type: "xavier"
      std: 0.01
    }
    bias_filler {
      type: "constant"
      value: 0.2
    }
  }
}
layer {
  name: "inception_resnet_v2_a2_3x3_3_bn"
  type: "BatchNorm"
  bottom: "inception_resnet_v2_a2_3x3_3"
  top: "inception_resnet_v2_a2_3x3_3"
  param {
    lr_mult: 0
    decay_mult: 0
  }
  param {
    lr_mult: 0
    decay_mult: 0
  }
  param {
    lr_mult: 0
    decay_mult: 0
  }
  batch_norm_param {
    use_global_stats: false
    moving_average_fraction: 0.95
  }
}
layer {
  name: "inception_resnet_v2_a2_3x3_3_scale"
  type: "Scale"
  bottom: "inception_resnet_v2_a2_3x3_3"
  top: "inception_resnet_v2_a2_3x3_3"
  scale_param {
    bias_term: true
  }
}
layer {
  name: "inception_resnet_v2_a2_3x3_3_relu"
  type: "ReLU"
  bottom: "inception_resnet_v2_a2_3x3_3"
  top: "inception_resnet_v2_a2_3x3_3"
}
layer {
  name: "inception_resnet_v2_a2_concat"
  type: "Concat"
  bottom: "inception_resnet_v2_a2_1x1"
  bottom: "inception_resnet_v2_a2_3x3"
  bottom: "inception_resnet_v2_a2_3x3_3"
  top: "inception_resnet_v2_a2_concat"
}
layer {
  name: "inception_resnet_v2_a2_up"
  type: "Convolution"
  bottom: "inception_resnet_v2_a2_concat"
  top: "inception_resnet_v2_a2_up"
  param {
    lr_mult: 1
    decay_mult: 1
  }
  param {
    lr_mult: 2
    decay_mult: 0
  }
  convolution_param {
    num_output: 320
    pad: 0
    kernel_size: 1
    stride: 1
    weight_filler {
      type: "xavier"
      std: 0.01
    }
    bias_filler {
      type: "constant"
      value: 0.2
    }
  }
}
layer {
  name: "inception_resnet_v2_a2_up_bn"
  type: "BatchNorm"
  bottom: "inception_resnet_v2_a2_up"
  top: "inception_resnet_v2_a2_up"
  param {
    lr_mult: 0
    decay_mult: 0
  }
  param {
    lr_mult: 0
    decay_mult: 0
  }
  param {
    lr_mult: 0
  
I0905 18:39:25.585865 31924 layer_factory.hpp:77] Creating layer data
I0905 18:39:25.585921 31924 net.cpp:100] Creating Layer data
I0905 18:39:25.585932 31924 net.cpp:408] data -> data
I0905 18:39:25.585959 31924 net.cpp:408] data -> label
I0905 18:39:25.586385 31924 image_data_layer.cpp:38] Opening file train.txt
I0905 18:39:26.042986 31924 image_data_layer.cpp:53] Shuffling data
I0905 18:39:26.245568 31924 image_data_layer.cpp:58] A total of 1281167 images.
I0905 18:39:26.263170 31924 image_data_layer.cpp:85] output data size: 5,3,299,299
I0905 18:39:26.272665 31924 net.cpp:150] Setting up data
I0905 18:39:26.272691 31924 net.cpp:157] Top shape: 5 3 299 299 (1341015)
I0905 18:39:26.272696 31924 net.cpp:157] Top shape: 5 (5)
I0905 18:39:26.272701 31924 net.cpp:165] Memory required for data: 5364080
I0905 18:39:26.272708 31924 layer_factory.hpp:77] Creating layer conv1_3x3_s2
I0905 18:39:26.272758 31924 net.cpp:100] Creating Layer conv1_3x3_s2
I0905 18:39:26.272765 31924 net.cpp:434] conv1_3x3_s2 <- data
I0905 18:39:26.272778 31924 net.cpp:408] conv1_3x3_s2 -> conv1_3x3_s2
I0905 18:39:26.519373 31924 net.cpp:150] Setting up conv1_3x3_s2
I0905 18:39:26.519421 31924 net.cpp:157] Top shape: 5 32 149 149 (3552160)
I0905 18:39:26.519428 31924 net.cpp:165] Memory required for data: 19572720
I0905 18:39:26.519450 31924 layer_factory.hpp:77] Creating layer conv1_3x3_s2_bn
I0905 18:39:26.519490 31924 net.cpp:100] Creating Layer conv1_3x3_s2_bn
I0905 18:39:26.519496 31924 net.cpp:434] conv1_3x3_s2_bn <- conv1_3x3_s2
I0905 18:39:26.519505 31924 net.cpp:395] conv1_3x3_s2_bn -> conv1_3x3_s2 (in-place)
I0905 18:39:26.519675 31924 net.cpp:150] Setting up conv1_3x3_s2_bn
I0905 18:39:26.519683 31924 net.cpp:157] Top shape: 5 32 149 149 (3552160)
I0905 18:39:26.519687 31924 net.cpp:165] Memory required for data: 33781360
I0905 18:39:26.519707 31924 layer_factory.hpp:77] Creating layer conv1_3x3_s2_scale
I0905 18:39:26.519739 31924 net.cpp:100] Creating Layer conv1_3x3_s2_scale
I0905 18:39:26.519743 31924 net.cpp:434] conv1_3x3_s2_scale <- conv1_3x3_s2
I0905 18:39:26.519748 31924 net.cpp:395] conv1_3x3_s2_scale -> conv1_3x3_s2 (in-place)
I0905 18:39:26.519800 31924 layer_factory.hpp:77] Creating layer conv1_3x3_s2_scale
I0905 18:39:26.519922 31924 net.cpp:150] Setting up conv1_3x3_s2_scale
I0905 18:39:26.519930 31924 net.cpp:157] Top shape: 5 32 149 149 (3552160)
I0905 18:39:26.519934 31924 net.cpp:165] Memory required for data: 47990000
I0905 18:39:26.519940 31924 layer_factory.hpp:77] Creating layer conv1_3x3_relu
I0905 18:39:26.519948 31924 net.cpp:100] Creating Layer conv1_3x3_relu
I0905 18:39:26.519951 31924 net.cpp:434] conv1_3x3_relu <- conv1_3x3_s2
I0905 18:39:26.519958 31924 net.cpp:395] conv1_3x3_relu -> conv1_3x3_s2 (in-place)
I0905 18:39:26.520107 31924 net.cpp:150] Setting up conv1_3x3_relu
I0905 18:39:26.520117 31924 net.cpp:157] Top shape: 5 32 149 149 (3552160)
I0905 18:39:26.520120 31924 net.cpp:165] Memory required for data: 62198640
I0905 18:39:26.520125 31924 layer_factory.hpp:77] Creating layer conv2_3x3_s1
I0905 18:39:26.520140 31924 net.cpp:100] Creating Layer conv2_3x3_s1
I0905 18:39:26.520145 31924 net.cpp:434] conv2_3x3_s1 <- conv1_3x3_s2
I0905 18:39:26.520151 31924 net.cpp:408] conv2_3x3_s1 -> conv2_3x3_s1
I0905 18:39:26.522094 31924 net.cpp:150] Setting up conv2_3x3_s1
I0905 18:39:26.522109 31924 net.cpp:157] Top shape: 5 32 147 147 (3457440)
I0905 18:39:26.522114 31924 net.cpp:165] Memory required for data: 76028400
I0905 18:39:26.522124 31924 layer_factory.hpp:77] Creating layer conv2_3x3_s1_bn
I0905 18:39:26.522132 31924 net.cpp:100] Creating Layer conv2_3x3_s1_bn
I0905 18:39:26.522136 31924 net.cpp:434] conv2_3x3_s1_bn <- conv2_3x3_s1
I0905 18:39:26.522143 31924 net.cpp:395] conv2_3x3_s1_bn -> conv2_3x3_s1 (in-place)
I0905 18:39:26.522306 31924 net.cpp:150] Setting up conv2_3x3_s1_bn
I0905 18:39:26.522313 31924 net.cpp:157] Top shape: 5 32 147 147 (3457440)
I0905 18:39:26.522316 31924 net.cpp:165] Memory required for data: 89858160
I0905 18:39:26.522323 31924 layer_factory.hpp:77] Creating layer conv2_3x3_s1_scale
I0905 18:39:26.522330 31924 net.cpp:100] Creating Layer conv2_3x3_s1_scale
I0905 18:39:26.522335 31924 net.cpp:434] conv2_3x3_s1_scale <- conv2_3x3_s1
I0905 18:39:26.522339 31924 net.cpp:395] conv2_3x3_s1_scale -> conv2_3x3_s1 (in-place)
I0905 18:39:26.522370 31924 layer_factory.hpp:77] Creating layer conv2_3x3_s1_scale
I0905 18:39:26.522490 31924 net.cpp:150] Setting up conv2_3x3_s1_scale
I0905 18:39:26.522497 31924 net.cpp:157] Top shape: 5 32 147 147 (3457440)
I0905 18:39:26.522501 31924 net.cpp:165] Memory required for data: 103687920
I0905 18:39:26.522507 31924 layer_factory.hpp:77] Creating layer conv2_3x3_relu
I0905 18:39:26.522516 31924 net.cpp:100] Creating Layer conv2_3x3_relu
I0905 18:39:26.522519 31924 net.cpp:434] conv2_3x3_relu <- conv2_3x3_s1
I0905 18:39:26.522524 31924 net.cpp:395] conv2_3x3_relu -> conv2_3x3_s1 (in-place)
I0905 18:39:26.522924 31924 net.cpp:150] Setting up conv2_3x3_relu
I0905 18:39:26.522938 31924 net.cpp:157] Top shape: 5 32 147 147 (3457440)
I0905 18:39:26.522943 31924 net.cpp:165] Memory required for data: 117517680
I0905 18:39:26.522946 31924 layer_factory.hpp:77] Creating layer conv3_3x3_s1
I0905 18:39:26.522958 31924 net.cpp:100] Creating Layer conv3_3x3_s1
I0905 18:39:26.522961 31924 net.cpp:434] conv3_3x3_s1 <- conv2_3x3_s1
I0905 18:39:26.522967 31924 net.cpp:408] conv3_3x3_s1 -> conv3_3x3_s1
I0905 18:39:26.523705 31924 net.cpp:150] Setting up conv3_3x3_s1
I0905 18:39:26.523717 31924 net.cpp:157] Top shape: 5 64 147 147 (6914880)
I0905 18:39:26.523721 31924 net.cpp:165] Memory required for data: 145177200
I0905 18:39:26.523727 31924 layer_factory.hpp:77] Creating layer conv3_3x3_s1_bn
I0905 18:39:26.523736 31924 net.cpp:100] Creating Layer conv3_3x3_s1_bn
I0905 18:39:26.523739 31924 net.cpp:434] conv3_3x3_s1_bn <- conv3_3x3_s1
I0905 18:39:26.523746 31924 net.cpp:395] conv3_3x3_s1_bn -> conv3_3x3_s1 (in-place)
I0905 18:39:26.523927 31924 net.cpp:150] Setting up conv3_3x3_s1_bn
I0905 18:39:26.523934 31924 net.cpp:157] Top shape: 5 64 147 147 (6914880)
I0905 18:39:26.523938 31924 net.cpp:165] Memory required for data: 172836720
I0905 18:39:26.523952 31924 layer_factory.hpp:77] Creating layer conv3_3x3_s1_scale
I0905 18:39:26.523959 31924 net.cpp:100] Creating Layer conv3_3x3_s1_scale
I0905 18:39:26.523962 31924 net.cpp:434] conv3_3x3_s1_scale <- conv3_3x3_s1
I0905 18:39:26.523967 31924 net.cpp:395] conv3_3x3_s1_scale -> conv3_3x3_s1 (in-place)
I0905 18:39:26.524000 31924 layer_factory.hpp:77] Creating layer conv3_3x3_s1_scale
I0905 18:39:26.524119 31924 net.cpp:150] Setting up conv3_3x3_s1_scale
I0905 18:39:26.524127 31924 net.cpp:157] Top shape: 5 64 147 147 (6914880)
I0905 18:39:26.524129 31924 net.cpp:165] Memory required for data: 200496240
I0905 18:39:26.524137 31924 layer_factory.hpp:77] Creating layer conv3_3x3_relu
I0905 18:39:26.524142 31924 net.cpp:100] Creating Layer conv3_3x3_relu
I0905 18:39:26.524147 31924 net.cpp:434] conv3_3x3_relu <- conv3_3x3_s1
I0905 18:39:26.524153 31924 net.cpp:395] conv3_3x3_relu -> conv3_3x3_s1 (in-place)
I0905 18:39:26.524562 31924 net.cpp:150] Setting up conv3_3x3_relu
I0905 18:39:26.524576 31924 net.cpp:157] Top shape: 5 64 147 147 (6914880)
I0905 18:39:26.524580 31924 net.cpp:165] Memory required for data: 228155760
I0905 18:39:26.524585 31924 layer_factory.hpp:77] Creating layer pool1_3x3_s2
I0905 18:39:26.524598 31924 net.cpp:100] Creating Layer pool1_3x3_s2
I0905 18:39:26.524603 31924 net.cpp:434] pool1_3x3_s2 <- conv3_3x3_s1
I0905 18:39:26.524610 31924 net.cpp:408] pool1_3x3_s2 -> pool1_3x3_s2
I0905 18:39:26.524657 31924 net.cpp:150] Setting up pool1_3x3_s2
I0905 18:39:26.524664 31924 net.cpp:157] Top shape: 5 64 73 73 (1705280)
I0905 18:39:26.524667 31924 net.cpp:165] Memory required for data: 234976880
I0905 18:39:26.524672 31924 layer_factory.hpp:77] Creating layer conv4_3x3_reduce
I0905 18:39:26.524683 31924 net.cpp:100] Creating Layer conv4_3x3_reduce
I0905 18:39:26.524688 31924 net.cpp:434] conv4_3x3_reduce <- pool1_3x3_s2
I0905 18:39:26.524694 31924 net.cpp:408] conv4_3x3_reduce -> conv4_3x3_reduce
I0905 18:39:26.525866 31924 net.cpp:150] Setting up conv4_3x3_reduce
I0905 18:39:26.525879 31924 net.cpp:157] Top shape: 5 80 73 73 (2131600)
I0905 18:39:26.525885 31924 net.cpp:165] Memory required for data: 243503280
I0905 18:39:26.525892 31924 layer_factory.hpp:77] Creating layer conv4_3x3_reduce_bn
I0905 18:39:26.525900 31924 net.cpp:100] Creating Layer conv4_3x3_reduce_bn
I0905 18:39:26.525904 31924 net.cpp:434] conv4_3x3_reduce_bn <- conv4_3x3_reduce
I0905 18:39:26.525912 31924 net.cpp:395] conv4_3x3_reduce_bn -> conv4_3x3_reduce (in-place)
I0905 18:39:26.526085 31924 net.cpp:150] Setting up conv4_3x3_reduce_bn
I0905 18:39:26.526093 31924 net.cpp:157] Top shape: 5 80 73 73 (2131600)
I0905 18:39:26.526096 31924 net.cpp:165] Memory required for data: 252029680
I0905 18:39:26.526104 31924 layer_factory.hpp:77] Creating layer conv4_3x3_reduce_scale
I0905 18:39:26.526111 31924 net.cpp:100] Creating Layer conv4_3x3_reduce_scale
I0905 18:39:26.526115 31924 net.cpp:434] conv4_3x3_reduce_scale <- conv4_3x3_reduce
I0905 18:39:26.526124 31924 net.cpp:395] conv4_3x3_reduce_scale -> conv4_3x3_reduce (in-place)
I0905 18:39:26.526154 31924 layer_factory.hpp:77] Creating layer conv4_3x3_reduce_scale
I0905 18:39:26.526254 31924 net.cpp:150] Setting up conv4_3x3_reduce_scale
I0905 18:39:26.526262 31924 net.cpp:157] Top shape: 5 80 73 73 (2131600)
I0905 18:39:26.526265 31924 net.cpp:165] Memory required for data: 260556080
I0905 18:39:26.526270 31924 layer_factory.hpp:77] Creating layer conv4_3x3_reduce_relu
I0905 18:39:26.526276 31924 net.cpp:100] Creating Layer conv4_3x3_reduce_relu
I0905 18:39:26.526279 31924 net.cpp:434] conv4_3x3_reduce_relu <- conv4_3x3_reduce
I0905 18:39:26.526286 31924 net.cpp:395] conv4_3x3_reduce_relu -> conv4_3x3_reduce (in-place)
I0905 18:39:26.526443 31924 net.cpp:150] Setting up conv4_3x3_reduce_relu
I0905 18:39:26.526456 31924 net.cpp:157] Top shape: 5 80 73 73 (2131600)
I0905 18:39:26.526465 31924 net.cpp:165] Memory required for data: 269082480
I0905 18:39:26.526469 31924 layer_factory.hpp:77] Creating layer conv4_3x3
I0905 18:39:26.526481 31924 net.cpp:100] Creating Layer conv4_3x3
I0905 18:39:26.526487 31924 net.cpp:434] conv4_3x3 <- conv4_3x3_reduce
I0905 18:39:26.526494 31924 net.cpp:408] conv4_3x3 -> conv4_3x3
I0905 18:39:26.529111 31924 net.cpp:150] Setting up conv4_3x3
I0905 18:39:26.529126 31924 net.cpp:157] Top shape: 5 192 71 71 (4839360)
I0905 18:39:26.529130 31924 net.cpp:165] Memory required for data: 288439920
I0905 18:39:26.529137 31924 layer_factory.hpp:77] Creating layer conv4_3x3_bn
I0905 18:39:26.529146 31924 net.cpp:100] Creating Layer conv4_3x3_bn
I0905 18:39:26.529151 31924 net.cpp:434] conv4_3x3_bn <- conv4_3x3
I0905 18:39:26.529156 31924 net.cpp:395] conv4_3x3_bn -> conv4_3x3 (in-place)
I0905 18:39:26.529320 31924 net.cpp:150] Setting up conv4_3x3_bn
I0905 18:39:26.529327 31924 net.cpp:157] Top shape: 5 192 71 71 (4839360)
I0905 18:39:26.529331 31924 net.cpp:165] Memory required for data: 307797360
I0905 18:39:26.529343 31924 layer_factory.hpp:77] Creating layer conv4_3x3_scale
I0905 18:39:26.529350 31924 net.cpp:100] Creating Layer conv4_3x3_scale
I0905 18:39:26.529353 31924 net.cpp:434] conv4_3x3_scale <- conv4_3x3
I0905 18:39:26.529358 31924 net.cpp:395] conv4_3x3_scale -> conv4_3x3 (in-place)
I0905 18:39:26.529394 31924 layer_factory.hpp:77] Creating layer conv4_3x3_scale
I0905 18:39:26.529492 31924 net.cpp:150] Setting up conv4_3x3_scale
I0905 18:39:26.529500 31924 net.cpp:157] Top shape: 5 192 71 71 (4839360)
I0905 18:39:26.529503 31924 net.cpp:165] Memory required for data: 327154800
I0905 18:39:26.529508 31924 layer_factory.hpp:77] Creating layer conv4_relu_3x3
I0905 18:39:26.529517 31924 net.cpp:100] Creating Layer conv4_relu_3x3
I0905 18:39:26.529521 31924 net.cpp:434] conv4_relu_3x3 <- conv4_3x3
I0905 18:39:26.529525 31924 net.cpp:395] conv4_relu_3x3 -> conv4_3x3 (in-place)
I0905 18:39:26.529667 31924 net.cpp:150] Setting up conv4_relu_3x3
I0905 18:39:26.529675 31924 net.cpp:157] Top shape: 5 192 71 71 (4839360)
I0905 18:39:26.529678 31924 net.cpp:165] Memory required for data: 346512240
I0905 18:39:26.529682 31924 layer_factory.hpp:77] Creating layer pool2_3x3_s2
I0905 18:39:26.529690 31924 net.cpp:100] Creating Layer pool2_3x3_s2
I0905 18:39:26.529693 31924 net.cpp:434] pool2_3x3_s2 <- conv4_3x3
I0905 18:39:26.529700 31924 net.cpp:408] pool2_3x3_s2 -> pool2_3x3_s2
I0905 18:39:26.529742 31924 net.cpp:150] Setting up pool2_3x3_s2
I0905 18:39:26.529747 31924 net.cpp:157] Top shape: 5 192 35 35 (1176000)
I0905 18:39:26.529750 31924 net.cpp:165] Memory required for data: 351216240
I0905 18:39:26.529754 31924 layer_factory.hpp:77] Creating layer pool2_3x3_s2_pool2_3x3_s2_0_split
I0905 18:39:26.529762 31924 net.cpp:100] Creating Layer pool2_3x3_s2_pool2_3x3_s2_0_split
I0905 18:39:26.529767 31924 net.cpp:434] pool2_3x3_s2_pool2_3x3_s2_0_split <- pool2_3x3_s2
I0905 18:39:26.529772 31924 net.cpp:408] pool2_3x3_s2_pool2_3x3_s2_0_split -> pool2_3x3_s2_pool2_3x3_s2_0_split_0
I0905 18:39:26.529778 31924 net.cpp:408] pool2_3x3_s2_pool2_3x3_s2_0_split -> pool2_3x3_s2_pool2_3x3_s2_0_split_1
I0905 18:39:26.529783 31924 net.cpp:408] pool2_3x3_s2_pool2_3x3_s2_0_split -> pool2_3x3_s2_pool2_3x3_s2_0_split_2
I0905 18:39:26.529788 31924 net.cpp:408] pool2_3x3_s2_pool2_3x3_s2_0_split -> pool2_3x3_s2_pool2_3x3_s2_0_split_3
I0905 18:39:26.529841 31924 net.cpp:150] Setting up pool2_3x3_s2_pool2_3x3_s2_0_split
I0905 18:39:26.529849 31924 net.cpp:157] Top shape: 5 192 35 35 (1176000)
I0905 18:39:26.529853 31924 net.cpp:157] Top shape: 5 192 35 35 (1176000)
I0905 18:39:26.529857 31924 net.cpp:157] Top shape: 5 192 35 35 (1176000)
I0905 18:39:26.529860 31924 net.cpp:157] Top shape: 5 192 35 35 (1176000)
I0905 18:39:26.529865 31924 net.cpp:165] Memory required for data: 370032240
I0905 18:39:26.529868 31924 layer_factory.hpp:77] Creating layer conv5_1x1
I0905 18:39:26.529880 31924 net.cpp:100] Creating Layer conv5_1x1
I0905 18:39:26.529888 31924 net.cpp:434] conv5_1x1 <- pool2_3x3_s2_pool2_3x3_s2_0_split_0
I0905 18:39:26.529899 31924 net.cpp:408] conv5_1x1 -> conv5_1x1
I0905 18:39:26.531930 31924 net.cpp:150] Setting up conv5_1x1
I0905 18:39:26.531946 31924 net.cpp:157] Top shape: 5 96 35 35 (588000)
I0905 18:39:26.531950 31924 net.cpp:165] Memory required for data: 372384240
I0905 18:39:26.531957 31924 layer_factory.hpp:77] Creating layer conv5_1x1_bn
I0905 18:39:26.531966 31924 net.cpp:100] Creating Layer conv5_1x1_bn
I0905 18:39:26.531970 31924 net.cpp:434] conv5_1x1_bn <- conv5_1x1
I0905 18:39:26.531976 31924 net.cpp:395] conv5_1x1_bn -> conv5_1x1 (in-place)
I0905 18:39:26.532151 31924 net.cpp:150] Setting up conv5_1x1_bn
I0905 18:39:26.532158 31924 net.cpp:157] Top shape: 5 96 35 35 (588000)
I0905 18:39:26.532162 31924 net.cpp:165] Memory required for data: 374736240
I0905 18:39:26.532169 31924 layer_factory.hpp:77] Creating layer conv5_1x1_scale
I0905 18:39:26.532178 31924 net.cpp:100] Creating Layer conv5_1x1_scale
I0905 18:39:26.532182 31924 net.cpp:434] conv5_1x1_scale <- conv5_1x1
I0905 18:39:26.532187 31924 net.cpp:395] conv5_1x1_scale -> conv5_1x1 (in-place)
I0905 18:39:26.532222 31924 layer_factory.hpp:77] Creating layer conv5_1x1_scale
I0905 18:39:26.532320 31924 net.cpp:150] Setting up conv5_1x1_scale
I0905 18:39:26.532326 31924 net.cpp:157] Top shape: 5 96 35 35 (588000)
I0905 18:39:26.532330 31924 net.cpp:165] Memory required for data: 377088240
I0905 18:39:26.532335 31924 layer_factory.hpp:77] Creating layer conv5_1x1_relu
I0905 18:39:26.532342 31924 net.cpp:100] Creating Layer conv5_1x1_relu
I0905 18:39:26.532346 31924 net.cpp:434] conv5_1x1_relu <- conv5_1x1
I0905 18:39:26.532351 31924 net.cpp:395] conv5_1x1_relu -> conv5_1x1 (in-place)
I0905 18:39:26.532505 31924 net.cpp:150] Setting up conv5_1x1_relu
I0905 18:39:26.532515 31924 net.cpp:157] Top shape: 5 96 35 35 (588000)
I0905 18:39:26.532517 31924 net.cpp:165] Memory required for data: 379440240
I0905 18:39:26.532522 31924 layer_factory.hpp:77] Creating layer conv5_5x5_reduce
I0905 18:39:26.532534 31924 net.cpp:100] Creating Layer conv5_5x5_reduce
I0905 18:39:26.532538 31924 net.cpp:434] conv5_5x5_reduce <- pool2_3x3_s2_pool2_3x3_s2_0_split_1
I0905 18:39:26.532546 31924 net.cpp:408] conv5_5x5_reduce -> conv5_5x5_reduce
I0905 18:39:26.533520 31924 net.cpp:150] Setting up conv5_5x5_reduce
I0905 18:39:26.533535 31924 net.cpp:157] Top shape: 5 48 35 35 (294000)
I0905 18:39:26.533540 31924 net.cpp:165] Memory required for data: 380616240
I0905 18:39:26.533545 31924 layer_factory.hpp:77] Creating layer conv5_5x5_reduce_bn
I0905 18:39:26.533555 31924 net.cpp:100] Creating Layer conv5_5x5_reduce_bn
I0905 18:39:26.533558 31924 net.cpp:434] conv5_5x5_reduce_bn <- conv5_5x5_reduce
I0905 18:39:26.533565 31924 net.cpp:395] conv5_5x5_reduce_bn -> conv5_5x5_reduce (in-place)
I0905 18:39:26.533733 31924 net.cpp:150] Setting up conv5_5x5_reduce_bn
I0905 18:39:26.533740 31924 net.cpp:157] Top shape: 5 48 35 35 (294000)
I0905 18:39:26.533743 31924 net.cpp:165] Memory required for data: 381792240
I0905 18:39:26.533751 31924 layer_factory.hpp:77] Creating layer conv5_5x5_reduce_scale
I0905 18:39:26.533757 31924 net.cpp:100] Creating Layer conv5_5x5_reduce_scale
I0905 18:39:26.533761 31924 net.cpp:434] conv5_5x5_reduce_scale <- conv5_5x5_reduce
I0905 18:39:26.533767 31924 net.cpp:395] conv5_5x5_reduce_scale -> conv5_5x5_reduce (in-place)
I0905 18:39:26.533803 31924 layer_factory.hpp:77] Creating layer conv5_5x5_reduce_scale
I0905 18:39:26.533900 31924 net.cpp:150] Setting up conv5_5x5_reduce_scale
I0905 18:39:26.533907 31924 net.cpp:157] Top shape: 5 48 35 35 (294000)
I0905 18:39:26.533910 31924 net.cpp:165] Memory required for data: 382968240
I0905 18:39:26.533916 31924 layer_factory.hpp:77] Creating layer conv5_5x5_reduce_relu
I0905 18:39:26.533922 31924 net.cpp:100] Creating Layer conv5_5x5_reduce_relu
I0905 18:39:26.533926 31924 net.cpp:434] conv5_5x5_reduce_relu <- conv5_5x5_reduce
I0905 18:39:26.533931 31924 net.cpp:395] conv5_5x5_reduce_relu -> conv5_5x5_reduce (in-place)
I0905 18:39:26.534088 31924 net.cpp:150] Setting up conv5_5x5_reduce_relu
I0905 18:39:26.534103 31924 net.cpp:157] Top shape: 5 48 35 35 (294000)
I0905 18:39:26.534107 31924 net.cpp:165] Memory required for data: 384144240
I0905 18:39:26.534111 31924 layer_factory.hpp:77] Creating layer conv5_5x5
I0905 18:39:26.534126 31924 net.cpp:100] Creating Layer conv5_5x5
I0905 18:39:26.534129 31924 net.cpp:434] conv5_5x5 <- conv5_5x5_reduce
I0905 18:39:26.534135 31924 net.cpp:408] conv5_5x5 -> conv5_5x5
I0905 18:39:26.535457 31924 net.cpp:150] Setting up conv5_5x5
I0905 18:39:26.535472 31924 net.cpp:157] Top shape: 5 64 35 35 (392000)
I0905 18:39:26.535476 31924 net.cpp:165] Memory required for data: 385712240
I0905 18:39:26.535482 31924 layer_factory.hpp:77] Creating layer conv5_5x5_bn
I0905 18:39:26.535492 31924 net.cpp:100] Creating Layer conv5_5x5_bn
I0905 18:39:26.535497 31924 net.cpp:434] conv5_5x5_bn <- conv5_5x5
I0905 18:39:26.535504 31924 net.cpp:395] conv5_5x5_bn -> conv5_5x5 (in-place)
I0905 18:39:26.535671 31924 net.cpp:150] Setting up conv5_5x5_bn
I0905 18:39:26.535678 31924 net.cpp:157] Top shape: 5 64 35 35 (392000)
I0905 18:39:26.535682 31924 net.cpp:165] Memory required for data: 387280240
I0905 18:39:26.535688 31924 layer_factory.hpp:77] Creating layer conv5_5x5_scale
I0905 18:39:26.535696 31924 net.cpp:100] Creating Layer conv5_5x5_scale
I0905 18:39:26.535701 31924 net.cpp:434] conv5_5x5_scale <- conv5_5x5
I0905 18:39:26.535706 31924 net.cpp:395] conv5_5x5_scale -> conv5_5x5 (in-place)
I0905 18:39:26.535738 31924 layer_factory.hpp:77] Creating layer conv5_5x5_scale
I0905 18:39:26.535835 31924 net.cpp:150] Setting up conv5_5x5_scale
I0905 18:39:26.535842 31924 net.cpp:157] Top shape: 5 64 35 35 (392000)
I0905 18:39:26.535845 31924 net.cpp:165] Memory required for data: 388848240
I0905 18:39:26.535851 31924 layer_factory.hpp:77] Creating layer conv5_5x5_relu
I0905 18:39:26.535858 31924 net.cpp:100] Creating Layer conv5_5x5_relu
I0905 18:39:26.535862 31924 net.cpp:434] conv5_5x5_relu <- conv5_5x5
I0905 18:39:26.535868 31924 net.cpp:395] conv5_5x5_relu -> conv5_5x5 (in-place)
I0905 18:39:26.536294 31924 net.cpp:150] Setting up conv5_5x5_relu
I0905 18:39:26.536308 31924 net.cpp:157] Top shape: 5 64 35 35 (392000)
I0905 18:39:26.536311 31924 net.cpp:165] Memory required for data: 390416240
I0905 18:39:26.536315 31924 layer_factory.hpp:77] Creating layer conv5_3x3_reduce
I0905 18:39:26.536329 31924 net.cpp:100] Creating Layer conv5_3x3_reduce
I0905 18:39:26.536334 31924 net.cpp:434] conv5_3x3_reduce <- pool2_3x3_s2_pool2_3x3_s2_0_split_2
I0905 18:39:26.536341 31924 net.cpp:408] conv5_3x3_reduce -> conv5_3x3_reduce
I0905 18:39:26.537056 31924 net.cpp:150] Setting up conv5_3x3_reduce
I0905 18:39:26.537070 31924 net.cpp:157] Top shape: 5 64 35 35 (392000)
I0905 18:39:26.537073 31924 net.cpp:165] Memory required for data: 391984240
I0905 18:39:26.537080 31924 layer_factory.hpp:77] Creating layer conv5_3x3_reduce_bn
I0905 18:39:26.537087 31924 net.cpp:100] Creating Layer conv5_3x3_reduce_bn
I0905 18:39:26.537091 31924 net.cpp:434] conv5_3x3_reduce_bn <- conv5_3x3_reduce
I0905 18:39:26.537099 31924 net.cpp:395] conv5_3x3_reduce_bn -> conv5_3x3_reduce (in-place)
I0905 18:39:26.537264 31924 net.cpp:150] Setting up conv5_3x3_reduce_bn
I0905 18:39:26.537271 31924 net.cpp:157] Top shape: 5 64 35 35 (392000)
I0905 18:39:26.537274 31924 net.cpp:165] Memory required for data: 393552240
I0905 18:39:26.537281 31924 layer_factory.hpp:77] Creating layer conv5_3x3_reduce_scale
I0905 18:39:26.537287 31924 net.cpp:100] Creating Layer conv5_3x3_reduce_scale
I0905 18:39:26.537292 31924 net.cpp:434] conv5_3x3_reduce_scale <- conv5_3x3_reduce
I0905 18:39:26.537298 31924 net.cpp:395] conv5_3x3_reduce_scale -> conv5_3x3_reduce (in-place)
I0905 18:39:26.537330 31924 layer_factory.hpp:77] Creating layer conv5_3x3_reduce_scale
I0905 18:39:26.537426 31924 net.cpp:150] Setting up conv5_3x3_reduce_scale
I0905 18:39:26.537433 31924 net.cpp:157] Top shape: 5 64 35 35 (392000)
I0905 18:39:26.537436 31924 net.cpp:165] Memory required for data: 395120240
I0905 18:39:26.537447 31924 layer_factory.hpp:77] Creating layer conv5_3x3_reduce_relu
I0905 18:39:26.537459 31924 net.cpp:100] Creating Layer conv5_3x3_reduce_relu
I0905 18:39:26.537464 31924 net.cpp:434] conv5_3x3_reduce_relu <- conv5_3x3_reduce
I0905 18:39:26.537470 31924 net.cpp:395] conv5_3x3_reduce_relu -> conv5_3x3_reduce (in-place)
I0905 18:39:26.537899 31924 net.cpp:150] Setting up conv5_3x3_reduce_relu
I0905 18:39:26.537911 31924 net.cpp:157] Top shape: 5 64 35 35 (392000)
I0905 18:39:26.537915 31924 net.cpp:165] Memory required for data: 396688240
I0905 18:39:26.537919 31924 layer_factory.hpp:77] Creating layer conv5_3x3
I0905 18:39:26.537931 31924 net.cpp:100] Creating Layer conv5_3x3
I0905 18:39:26.537935 31924 net.cpp:434] conv5_3x3 <- conv5_3x3_reduce
I0905 18:39:26.537943 31924 net.cpp:408] conv5_3x3 -> conv5_3x3
I0905 18:39:26.539427 31924 net.cpp:150] Setting up conv5_3x3
I0905 18:39:26.539443 31924 net.cpp:157] Top shape: 5 96 35 35 (588000)
I0905 18:39:26.539448 31924 net.cpp:165] Memory required for data: 399040240
I0905 18:39:26.539463 31924 layer_factory.hpp:77] Creating layer conv5_3x3_bn
I0905 18:39:26.539472 31924 net.cpp:100] Creating Layer conv5_3x3_bn
I0905 18:39:26.539477 31924 net.cpp:434] conv5_3x3_bn <- conv5_3x3
I0905 18:39:26.539482 31924 net.cpp:395] conv5_3x3_bn -> conv5_3x3 (in-place)
I0905 18:39:26.539659 31924 net.cpp:150] Setting up conv5_3x3_bn
I0905 18:39:26.539666 31924 net.cpp:157] Top shape: 5 96 35 35 (588000)
I0905 18:39:26.539670 31924 net.cpp:165] Memory required for data: 401392240
I0905 18:39:26.539676 31924 layer_factory.hpp:77] Creating layer conv5_3x3_scale
I0905 18:39:26.539685 31924 net.cpp:100] Creating Layer conv5_3x3_scale
I0905 18:39:26.539688 31924 net.cpp:434] conv5_3x3_scale <- conv5_3x3
I0905 18:39:26.539693 31924 net.cpp:395] conv5_3x3_scale -> conv5_3x3 (in-place)
I0905 18:39:26.539729 31924 layer_factory.hpp:77] Creating layer conv5_3x3_scale
I0905 18:39:26.539835 31924 net.cpp:150] Setting up conv5_3x3_scale
I0905 18:39:26.539842 31924 net.cpp:157] Top shape: 5 96 35 35 (588000)
I0905 18:39:26.539845 31924 net.cpp:165] Memory required for data: 403744240
I0905 18:39:26.539852 31924 layer_factory.hpp:77] Creating layer conv5_3x3_relu
I0905 18:39:26.539858 31924 net.cpp:100] Creating Layer conv5_3x3_relu
I0905 18:39:26.539861 31924 net.cpp:434] conv5_3x3_relu <- conv5_3x3
I0905 18:39:26.539867 31924 net.cpp:395] conv5_3x3_relu -> conv5_3x3 (in-place)
I0905 18:39:26.540020 31924 net.cpp:150] Setting up conv5_3x3_relu
I0905 18:39:26.540029 31924 net.cpp:157] Top shape: 5 96 35 35 (588000)
I0905 18:39:26.540032 31924 net.cpp:165] Memory required for data: 406096240
I0905 18:39:26.540035 31924 layer_factory.hpp:77] Creating layer conv5_3x3_2
I0905 18:39:26.540047 31924 net.cpp:100] Creating Layer conv5_3x3_2
I0905 18:39:26.540051 31924 net.cpp:434] conv5_3x3_2 <- conv5_3x3
I0905 18:39:26.540060 31924 net.cpp:408] conv5_3x3_2 -> conv5_3x3_2
I0905 18:39:26.541677 31924 net.cpp:150] Setting up conv5_3x3_2
I0905 18:39:26.541692 31924 net.cpp:157] Top shape: 5 96 35 35 (588000)
I0905 18:39:26.541697 31924 net.cpp:165] Memory required for data: 408448240
I0905 18:39:26.541702 31924 layer_factory.hpp:77] Creating layer conv5_3x3_2_bn
I0905 18:39:26.541712 31924 net.cpp:100] Creating Layer conv5_3x3_2_bn
I0905 18:39:26.541717 31924 net.cpp:434] conv5_3x3_2_bn <- conv5_3x3_2
I0905 18:39:26.541724 31924 net.cpp:395] conv5_3x3_2_bn -> conv5_3x3_2 (in-place)
I0905 18:39:26.541898 31924 net.cpp:150] Setting up conv5_3x3_2_bn
I0905 18:39:26.541904 31924 net.cpp:157] Top shape: 5 96 35 35 (588000)
I0905 18:39:26.541908 31924 net.cpp:165] Memory required for data: 410800240
I0905 18:39:26.541914 31924 layer_factory.hpp:77] Creating layer conv5_3x3_2_scale
I0905 18:39:26.541923 31924 net.cpp:100] Creating Layer conv5_3x3_2_scale
I0905 18:39:26.541927 31924 net.cpp:434] conv5_3x3_2_scale <- conv5_3x3_2
I0905 18:39:26.541932 31924 net.cpp:395] conv5_3x3_2_scale -> conv5_3x3_2 (in-place)
I0905 18:39:26.541968 31924 layer_factory.hpp:77] Creating layer conv5_3x3_2_scale
I0905 18:39:26.542080 31924 net.cpp:150] Setting up conv5_3x3_2_scale
I0905 18:39:26.542093 31924 net.cpp:157] Top shape: 5 96 35 35 (588000)
I0905 18:39:26.542098 31924 net.cpp:165] Memory required for data: 413152240
I0905 18:39:26.542104 31924 layer_factory.hpp:77] Creating layer conv5_3x3_2_relu
I0905 18:39:26.542109 31924 net.cpp:100] Creating Layer conv5_3x3_2_relu
I0905 18:39:26.542114 31924 net.cpp:434] conv5_3x3_2_relu <- conv5_3x3_2
I0905 18:39:26.542119 31924 net.cpp:395] conv5_3x3_2_relu -> conv5_3x3_2 (in-place)
I0905 18:39:26.542275 31924 net.cpp:150] Setting up conv5_3x3_2_relu
I0905 18:39:26.542284 31924 net.cpp:157] Top shape: 5 96 35 35 (588000)
I0905 18:39:26.542287 31924 net.cpp:165] Memory required for data: 415504240
I0905 18:39:26.542291 31924 layer_factory.hpp:77] Creating layer ave_pool
I0905 18:39:26.542297 31924 net.cpp:100] Creating Layer ave_pool
I0905 18:39:26.542301 31924 net.cpp:434] ave_pool <- pool2_3x3_s2_pool2_3x3_s2_0_split_3
I0905 18:39:26.542309 31924 net.cpp:408] ave_pool -> ave_pool
I0905 18:39:26.542489 31924 net.cpp:150] Setting up ave_pool
I0905 18:39:26.542498 31924 net.cpp:157] Top shape: 5 192 35 35 (1176000)
I0905 18:39:26.542501 31924 net.cpp:165] Memory required for data: 420208240
I0905 18:39:26.542505 31924 layer_factory.hpp:77] Creating layer conv5_1x1_ave
I0905 18:39:26.542517 31924 net.cpp:100] Creating Layer conv5_1x1_ave
I0905 18:39:26.542521 31924 net.cpp:434] conv5_1x1_ave <- ave_pool
I0905 18:39:26.542528 31924 net.cpp:408] conv5_1x1_ave -> conv5_1x1_ave
I0905 18:39:26.543552 31924 net.cpp:150] Setting up conv5_1x1_ave
I0905 18:39:26.543566 31924 net.cpp:157] Top shape: 5 64 35 35 (392000)
I0905 18:39:26.543571 31924 net.cpp:165] Memory required for data: 421776240
I0905 18:39:26.543578 31924 layer_factory.hpp:77] Creating layer conv5_1x1_ave_bn
I0905 18:39:26.543587 31924 net.cpp:100] Creating Layer conv5_1x1_ave_bn
I0905 18:39:26.543592 31924 net.cpp:434] conv5_1x1_ave_bn <- conv5_1x1_ave
I0905 18:39:26.543604 31924 net.cpp:395] conv5_1x1_ave_bn -> conv5_1x1_ave (in-place)
I0905 18:39:26.543774 31924 net.cpp:150] Setting up conv5_1x1_ave_bn
I0905 18:39:26.543781 31924 net.cpp:157] Top shape: 5 64 35 35 (392000)
I0905 18:39:26.543784 31924 net.cpp:165] Memory required for data: 423344240
I0905 18:39:26.543792 31924 layer_factory.hpp:77] Creating layer conv5_1x1_ave_scale
I0905 18:39:26.543799 31924 net.cpp:100] Creating Layer conv5_1x1_ave_scale
I0905 18:39:26.543803 31924 net.cpp:434] conv5_1x1_ave_scale <- conv5_1x1_ave
I0905 18:39:26.543807 31924 net.cpp:395] conv5_1x1_ave_scale -> conv5_1x1_ave (in-place)
I0905 18:39:26.543843 31924 layer_factory.hpp:77] Creating layer conv5_1x1_ave_scale
I0905 18:39:26.543944 31924 net.cpp:150] Setting up conv5_1x1_ave_scale
I0905 18:39:26.543951 31924 net.cpp:157] Top shape: 5 64 35 35 (392000)
I0905 18:39:26.543956 31924 net.cpp:165] Memory required for data: 424912240
I0905 18:39:26.543961 31924 layer_factory.hpp:77] Creating layer conv5_1x1_ave_relu
I0905 18:39:26.543968 31924 net.cpp:100] Creating Layer conv5_1x1_ave_relu
I0905 18:39:26.543972 31924 net.cpp:434] conv5_1x1_ave_relu <- conv5_1x1_ave
I0905 18:39:26.543977 31924 net.cpp:395] conv5_1x1_ave_relu -> conv5_1x1_ave (in-place)
I0905 18:39:26.544131 31924 net.cpp:150] Setting up conv5_1x1_ave_relu
I0905 18:39:26.544138 31924 net.cpp:157] Top shape: 5 64 35 35 (392000)
I0905 18:39:26.544142 31924 net.cpp:165] Memory required for data: 426480240
I0905 18:39:26.544145 31924 layer_factory.hpp:77] Creating layer stem_concat
I0905 18:39:26.544153 31924 net.cpp:100] Creating Layer stem_concat
I0905 18:39:26.544157 31924 net.cpp:434] stem_concat <- conv5_1x1
I0905 18:39:26.544162 31924 net.cpp:434] stem_concat <- conv5_5x5
I0905 18:39:26.544165 31924 net.cpp:434] stem_concat <- conv5_3x3_2
I0905 18:39:26.544169 31924 net.cpp:434] stem_concat <- conv5_1x1_ave
I0905 18:39:26.544176 31924 net.cpp:408] stem_concat -> stem_concat
I0905 18:39:26.544200 31924 net.cpp:150] Setting up stem_concat
I0905 18:39:26.544206 31924 net.cpp:157] Top shape: 5 320 35 35 (1960000)
I0905 18:39:26.544209 31924 net.cpp:165] Memory required for data: 434320240
I0905 18:39:26.544222 31924 layer_factory.hpp:77] Creating layer stem_concat_stem_concat_0_split
I0905 18:39:26.544230 31924 net.cpp:100] Creating Layer stem_concat_stem_concat_0_split
I0905 18:39:26.544234 31924 net.cpp:434] stem_concat_stem_concat_0_split <- stem_concat
I0905 18:39:26.544239 31924 net.cpp:408] stem_concat_stem_concat_0_split -> stem_concat_stem_concat_0_split_0
I0905 18:39:26.544246 31924 net.cpp:408] stem_concat_stem_concat_0_split -> stem_concat_stem_concat_0_split_1
I0905 18:39:26.544251 31924 net.cpp:408] stem_concat_stem_concat_0_split -> stem_concat_stem_concat_0_split_2
I0905 18:39:26.544256 31924 net.cpp:408] stem_concat_stem_concat_0_split -> stem_concat_stem_concat_0_split_3
I0905 18:39:26.544308 31924 net.cpp:150] Setting up stem_concat_stem_concat_0_split
I0905 18:39:26.544314 31924 net.cpp:157] Top shape: 5 320 35 35 (1960000)
I0905 18:39:26.544318 31924 net.cpp:157] Top shape: 5 320 35 35 (1960000)
I0905 18:39:26.544322 31924 net.cpp:157] Top shape: 5 320 35 35 (1960000)
I0905 18:39:26.544327 31924 net.cpp:157] Top shape: 5 320 35 35 (1960000)
I0905 18:39:26.544329 31924 net.cpp:165] Memory required for data: 465680240
I0905 18:39:26.544333 31924 layer_factory.hpp:77] Creating layer inception_resnet_v2_a1_1x1
I0905 18:39:26.544342 31924 net.cpp:100] Creating Layer inception_resnet_v2_a1_1x1
I0905 18:39:26.544347 31924 net.cpp:434] inception_resnet_v2_a1_1x1 <- stem_concat_stem_concat_0_split_0
I0905 18:39:26.544354 31924 net.cpp:408] inception_resnet_v2_a1_1x1 -> inception_resnet_v2_a1_1x1
I0905 18:39:26.545351 31924 net.cpp:150] Setting up inception_resnet_v2_a1_1x1
I0905 18:39:26.545369 31924 net.cpp:157] Top shape: 5 32 35 35 (196000)
I0905 18:39:26.545374 31924 net.cpp:165] Memory required for data: 466464240
I0905 18:39:26.545380 31924 layer_factory.hpp:77] Creating layer inception_resnet_v2_a1_1x1_bn
I0905 18:39:26.545387 31924 net.cpp:100] Creating Layer inception_resnet_v2_a1_1x1_bn
I0905 18:39:26.545392 31924 net.cpp:434] inception_resnet_v2_a1_1x1_bn <- inception_resnet_v2_a1_1x1
I0905 18:39:26.545400 31924 net.cpp:395] inception_resnet_v2_a1_1x1_bn -> inception_resnet_v2_a1_1x1 (in-place)
I0905 18:39:26.545573 31924 net.cpp:150] Setting up inception_resnet_v2_a1_1x1_bn
I0905 18:39:26.545580 31924 net.cpp:157] Top shape: 5 32 35 35 (196000)
I0905 18:39:26.545583 31924 net.cpp:165] Memory required for data: 467248240
I0905 18:39:26.545590 31924 layer_factory.hpp:77] Creating layer inception_resnet_v2_a1_1x1_scale
I0905 18:39:26.545598 31924 net.cpp:100] Creating Layer inception_resnet_v2_a1_1x1_scale
I0905 18:39:26.545601 31924 net.cpp:434] inception_resnet_v2_a1_1x1_scale <- inception_resnet_v2_a1_1x1
I0905 18:39:26.545606 31924 net.cpp:395] inception_resnet_v2_a1_1x1_scale -> inception_resnet_v2_a1_1x1 (in-place)
I0905 18:39:26.545641 31924 layer_factory.hpp:77] Creating layer inception_resnet_v2_a1_1x1_scale
I0905 18:39:26.545743 31924 net.cpp:150] Setting up inception_resnet_v2_a1_1x1_scale
I0905 18:39:26.545750 31924 net.cpp:157] Top shape: 5 32 35 35 (196000)
I0905 18:39:26.545754 31924 net.cpp:165] Memory required for data: 468032240
I0905 18:39:26.545760 31924 layer_factory.hpp:77] Creating layer inception_resnet_v2_a1_1x1_relu
I0905 18:39:26.545766 31924 net.cpp:100] Creating Layer inception_resnet_v2_a1_1x1_relu
I0905 18:39:26.545769 31924 net.cpp:434] inception_resnet_v2_a1_1x1_relu <- inception_resnet_v2_a1_1x1
I0905 18:39:26.545775 31924 net.cpp:395] inception_resnet_v2_a1_1x1_relu -> inception_resnet_v2_a1_1x1 (in-place)
I0905 18:39:26.546210 31924 net.cpp:150] Setting up inception_resnet_v2_a1_1x1_relu
I0905 18:39:26.546222 31924 net.cpp:157] Top shape: 5 32 35 35 (196000)
I0905 18:39:26.546226 31924 net.cpp:165] Memory required for data: 468816240
I0905 18:39:26.546231 31924 layer_factory.hpp:77] Creating layer inception_resnet_v2_a1_3x3_reduce
I0905 18:39:26.546241 31924 net.cpp:100] Creating Layer inception_resnet_v2_a1_3x3_reduce
I0905 18:39:26.546247 31924 net.cpp:434] inception_resnet_v2_a1_3x3_reduce <- stem_concat_stem_concat_0_split_1
I0905 18:39:26.546257 31924 net.cpp:408] inception_resnet_v2_a1_3x3_reduce -> inception_resnet_v2_a1_3x3_reduce
I0905 18:39:26.547556 31924 net.cpp:150] Setting up inception_resnet_v2_a1_3x3_reduce
I0905 18:39:26.547571 31924 net.cpp:157] Top shape: 5 32 35 35 (196000)
I0905 18:39:26.547575 31924 net.cpp:165] Memory required for data: 469600240
I0905 18:39:26.547582 31924 layer_factory.hpp:77] Creating layer inception_resnet_v2_a1_3x3_reduce_bn
I0905 18:39:26.547593 31924 net.cpp:100] Creating Layer inception_resnet_v2_a1_3x3_reduce_bn
I0905 18:39:26.547597 31924 net.cpp:434] inception_resnet_v2_a1_3x3_reduce_bn <- inception_resnet_v2_a1_3x3_reduce
I0905 18:39:26.547605 31924 net.cpp:395] inception_resnet_v2_a1_3x3_reduce_bn -> inception_resnet_v2_a1_3x3_reduce (in-place)
I0905 18:39:26.547782 31924 net.cpp:150] Setting up inception_resnet_v2_a1_3x3_reduce_bn
I0905 18:39:26.547790 31924 net.cpp:157] Top shape: 5 32 35 35 (196000)
I0905 18:39:26.547793 31924 net.cpp:165] Memory required for data: 470384240
I0905 18:39:26.547799 31924 layer_factory.hpp:77] Creating layer inception_resnet_v2_a1_3x3_reduce_scale
I0905 18:39:26.547807 31924 net.cpp:100] Creating Layer inception_resnet_v2_a1_3x3_reduce_scale
I0905 18:39:26.547811 31924 net.cpp:434] inception_resnet_v2_a1_3x3_reduce_scale <- inception_resnet_v2_a1_3x3_reduce
I0905 18:39:26.547816 31924 net.cpp:395] inception_resnet_v2_a1_3x3_reduce_scale -> inception_resnet_v2_a1_3x3_reduce (in-place)
I0905 18:39:26.547852 31924 layer_factory.hpp:77] Creating layer inception_resnet_v2_a1_3x3_reduce_scale
I0905 18:39:26.547958 31924 net.cpp:150] Setting up inception_resnet_v2_a1_3x3_reduce_scale
I0905 18:39:26.547966 31924 net.cpp:157] Top shape: 5 32 35 35 (196000)
I0905 18:39:26.547968 31924 net.cpp:165] Memory required for data: 471168240
I0905 18:39:26.547976 31924 layer_factory.hpp:77] Creating layer inception_resnet_v2_a1_3x3_reduce_relu
I0905 18:39:26.547982 31924 net.cpp:100] Creating Layer inception_resnet_v2_a1_3x3_reduce_relu
I0905 18:39:26.547986 31924 net.cpp:434] inception_resnet_v2_a1_3x3_reduce_relu <- inception_resnet_v2_a1_3x3_reduce
I0905 18:39:26.547992 31924 net.cpp:395] inception_resnet_v2_a1_3x3_reduce_relu -> inception_resnet_v2_a1_3x3_reduce (in-place)
I0905 18:39:26.548149 31924 net.cpp:150] Setting up inception_resnet_v2_a1_3x3_reduce_relu
I0905 18:39:26.548157 31924 net.cpp:157] Top shape: 5 32 35 35 (196000)
I0905 18:39:26.548161 31924 net.cpp:165] Memory required for data: 471952240
I0905 18:39:26.548166 31924 layer_factory.hpp:77] Creating layer inception_resnet_v2_a1_3x3
I0905 18:39:26.548177 31924 net.cpp:100] Creating Layer inception_resnet_v2_a1_3x3
I0905 18:39:26.548180 31924 net.cpp:434] inception_resnet_v2_a1_3x3 <- inception_resnet_v2_a1_3x3_reduce
I0905 18:39:26.548187 31924 net.cpp:408] inception_resnet_v2_a1_3x3 -> inception_resnet_v2_a1_3x3
I0905 18:39:26.549231 31924 net.cpp:150] Setting up inception_resnet_v2_a1_3x3
I0905 18:39:26.549247 31924 net.cpp:157] Top shape: 5 32 35 35 (196000)
I0905 18:39:26.549250 31924 net.cpp:165] Memory required for data: 472736240
I0905 18:39:26.549257 31924 layer_factory.hpp:77] Creating layer inception_resnet_v2_a1_3x3_bn
I0905 18:39:26.549269 31924 net.cpp:100] Creating Layer inception_resnet_v2_a1_3x3_bn
I0905 18:39:26.549273 31924 net.cpp:434] inception_resnet_v2_a1_3x3_bn <- inception_resnet_v2_a1_3x3
I0905 18:39:26.549283 31924 net.cpp:395] inception_resnet_v2_a1_3x3_bn -> inception_resnet_v2_a1_3x3 (in-place)
I0905 18:39:26.549458 31924 net.cpp:150] Setting up inception_resnet_v2_a1_3x3_bn
I0905 18:39:26.549465 31924 net.cpp:157] Top shape: 5 32 35 35 (196000)
I0905 18:39:26.549469 31924 net.cpp:165] Memory required for data: 473520240
I0905 18:39:26.549476 31924 layer_factory.hpp:77] Creating layer inception_resnet_v2_a1_3x3_scale
I0905 18:39:26.549484 31924 net.cpp:100] Creating Layer inception_resnet_v2_a1_3x3_scale
I0905 18:39:26.549487 31924 net.cpp:434] inception_resnet_v2_a1_3x3_scale <- inception_resnet_v2_a1_3x3
I0905 18:39:26.549492 31924 net.cpp:395] inception_resnet_v2_a1_3x3_scale -> inception_resnet_v2_a1_3x3 (in-place)
I0905 18:39:26.549541 31924 layer_factory.hpp:77] Creating layer inception_resnet_v2_a1_3x3_scale
I0905 18:39:26.549646 31924 net.cpp:150] Setting up inception_resnet_v2_a1_3x3_scale
I0905 18:39:26.549654 31924 net.cpp:157] Top shape: 5 32 35 35 (196000)
I0905 18:39:26.549657 31924 net.cpp:165] Memory required for data: 474304240
I0905 18:39:26.549664 31924 layer_factory.hpp:77] Creating layer inception_resnet_v2_a1_3x3_relu
I0905 18:39:26.549670 31924 net.cpp:100] Creating Layer inception_resnet_v2_a1_3x3_relu
I0905 18:39:26.549674 31924 net.cpp:434] inception_resnet_v2_a1_3x3_relu <- inception_resnet_v2_a1_3x3
I0905 18:39:26.549680 31924 net.cpp:395] inception_resnet_v2_a1_3x3_relu -> inception_resnet_v2_a1_3x3 (in-place)
I0905 18:39:26.549826 31924 net.cpp:150] Setting up inception_resnet_v2_a1_3x3_relu
I0905 18:39:26.549835 31924 net.cpp:157] Top shape: 5 32 35 35 (196000)
I0905 18:39:26.549839 31924 net.cpp:165] Memory required for data: 475088240
I0905 18:39:26.549842 31924 layer_factory.hpp:77] Creating layer inception_resnet_v2_a1_3x3_2_reduce
I0905 18:39:26.549854 31924 net.cpp:100] Creating Layer inception_resnet_v2_a1_3x3_2_reduce
I0905 18:39:26.549859 31924 net.cpp:434] inception_resnet_v2_a1_3x3_2_reduce <- stem_concat_stem_concat_0_split_2
I0905 18:39:26.549865 31924 net.cpp:408] inception_resnet_v2_a1_3x3_2_reduce -> inception_resnet_v2_a1_3x3_2_reduce
I0905 18:39:26.550878 31924 net.cpp:150] Setting up inception_resnet_v2_a1_3x3_2_reduce
I0905 18:39:26.550892 31924 net.cpp:157] Top shape: 5 32 35 35 (196000)
I0905 18:39:26.550896 31924 net.cpp:165] Memory required for data: 475872240
I0905 18:39:26.550902 31924 layer_factory.hpp:77] Creating layer inception_resnet_v2_a1_3x3_2_reduce_bn
I0905 18:39:26.550915 31924 net.cpp:100] Creating Layer inception_resnet_v2_a1_3x3_2_reduce_bn
I0905 18:39:26.550920 31924 net.cpp:434] inception_resnet_v2_a1_3x3_2_reduce_bn <- inception_resnet_v2_a1_3x3_2_reduce
I0905 18:39:26.550926 31924 net.cpp:395] inception_resnet_v2_a1_3x3_2_reduce_bn -> inception_resnet_v2_a1_3x3_2_reduce (in-place)
I0905 18:39:26.551105 31924 net.cpp:150] Setting up inception_resnet_v2_a1_3x3_2_reduce_bn
I0905 18:39:26.551111 31924 net.cpp:157] Top shape: 5 32 35 35 (196000)
I0905 18:39:26.551115 31924 net.cpp:165] Memory required for data: 476656240
I0905 18:39:26.551122 31924 layer_factory.hpp:77] Creating layer inception_resnet_v2_a1_3x3_2_reduce_scale
I0905 18:39:26.551129 31924 net.cpp:100] Creating Layer inception_resnet_v2_a1_3x3_2_reduce_scale
I0905 18:39:26.551132 31924 net.cpp:434] inception_resnet_v2_a1_3x3_2_reduce_scale <- inception_resnet_v2_a1_3x3_2_reduce
I0905 18:39:26.551137 31924 net.cpp:395] inception_resnet_v2_a1_3x3_2_reduce_scale -> inception_resnet_v2_a1_3x3_2_reduce (in-place)
I0905 18:39:26.551175 31924 layer_factory.hpp:77] Creating layer inception_resnet_v2_a1_3x3_2_reduce_scale
I0905 18:39:26.551278 31924 net.cpp:150] Setting up inception_resnet_v2_a1_3x3_2_reduce_scale
I0905 18:39:26.551287 31924 net.cpp:157] Top shape: 5 32 35 35 (196000)
I0905 18:39:26.551290 31924 net.cpp:165] Memory required for data: 477440240
I0905 18:39:26.551296 31924 layer_factory.hpp:77] Creating layer inception_resnet_v2_a1_3x3_2_reduce_relu
I0905 18:39:26.551301 31924 net.cpp:100] Creating Layer inception_resnet_v2_a1_3x3_2_reduce_relu
I0905 18:39:26.551306 31924 net.cpp:434] inception_resnet_v2_a1_3x3_2_reduce_relu <- inception_resnet_v2_a1_3x3_2_reduce
I0905 18:39:26.551311 31924 net.cpp:395] inception_resnet_v2_a1_3x3_2_reduce_relu -> inception_resnet_v2_a1_3x3_2_reduce (in-place)
I0905 18:39:26.551465 31924 net.cpp:150] Setting up inception_resnet_v2_a1_3x3_2_reduce_relu
I0905 18:39:26.551475 31924 net.cpp:157] Top shape: 5 32 35 35 (196000)
I0905 18:39:26.551477 31924 net.cpp:165] Memory required for data: 478224240
I0905 18:39:26.551481 31924 layer_factory.hpp:77] Creating layer inception_resnet_v2_a1_3x3_2
I0905 18:39:26.551491 31924 net.cpp:100] Creating Layer inception_resnet_v2_a1_3x3_2
I0905 18:39:26.551499 31924 net.cpp:434] inception_resnet_v2_a1_3x3_2 <- inception_resnet_v2_a1_3x3_2_reduce
I0905 18:39:26.551514 31924 net.cpp:408] inception_resnet_v2_a1_3x3_2 -> inception_resnet_v2_a1_3x3_2
I0905 18:39:26.552546 31924 net.cpp:150] Setting up inception_resnet_v2_a1_3x3_2
I0905 18:39:26.552561 31924 net.cpp:157] Top shape: 5 48 35 35 (294000)
I0905 18:39:26.552564 31924 net.cpp:165] Memory required for data: 479400240
I0905 18:39:26.552570 31924 layer_factory.hpp:77] Creating layer inception_resnet_v2_a1_3x3_2_bn
I0905 18:39:26.552578 31924 net.cpp:100] Creating Layer inception_resnet_v2_a1_3x3_2_bn
I0905 18:39:26.552583 31924 net.cpp:434] inception_resnet_v2_a1_3x3_2_bn <- inception_resnet_v2_a1_3x3_2
I0905 18:39:26.552594 31924 net.cpp:395] inception_resnet_v2_a1_3x3_2_bn -> inception_resnet_v2_a1_3x3_2 (in-place)
I0905 18:39:26.552772 31924 net.cpp:150] Setting up inception_resnet_v2_a1_3x3_2_bn
I0905 18:39:26.552778 31924 net.cpp:157] Top shape: 5 48 35 35 (294000)
I0905 18:39:26.552781 31924 net.cpp:165] Memory required for data: 480576240
I0905 18:39:26.552788 31924 layer_factory.hpp:77] Creating layer inception_resnet_v2_a1_3x3_2_scale
I0905 18:39:26.552795 31924 net.cpp:100] Creating Layer inception_resnet_v2_a1_3x3_2_scale
I0905 18:39:26.552799 31924 net.cpp:434] inception_resnet_v2_a1_3x3_2_scale <- inception_resnet_v2_a1_3x3_2
I0905 18:39:26.552805 31924 net.cpp:395] inception_resnet_v2_a1_3x3_2_scale -> inception_resnet_v2_a1_3x3_2 (in-place)
I0905 18:39:26.552839 31924 layer_factory.hpp:77] Creating layer inception_resnet_v2_a1_3x3_2_scale
I0905 18:39:26.552942 31924 net.cpp:150] Setting up inception_resnet_v2_a1_3x3_2_scale
I0905 18:39:26.552949 31924 net.cpp:157] Top shape: 5 48 35 35 (294000)
I0905 18:39:26.552953 31924 net.cpp:165] Memory required for data: 481752240
I0905 18:39:26.552958 31924 layer_factory.hpp:77] Creating layer inception_resnet_v2_a1_3x3_2_relu
I0905 18:39:26.552963 31924 net.cpp:100] Creating Layer inception_resnet_v2_a1_3x3_2_relu
I0905 18:39:26.552968 31924 net.cpp:434] inception_resnet_v2_a1_3x3_2_relu <- inception_resnet_v2_a1_3x3_2
I0905 18:39:26.552974 31924 net.cpp:395] inception_resnet_v2_a1_3x3_2_relu -> inception_resnet_v2_a1_3x3_2 (in-place)
I0905 18:39:26.553125 31924 net.cpp:150] Setting up inception_resnet_v2_a1_3x3_2_relu
I0905 18:39:26.553134 31924 net.cpp:157] Top shape: 5 48 35 35 (294000)
I0905 18:39:26.553138 31924 net.cpp:165] Memory required for data: 482928240
I0905 18:39:26.553141 31924 layer_factory.hpp:77] Creating layer inception_resnet_v2_a1_3x3_3
I0905 18:39:26.553154 31924 net.cpp:100] Creating Layer inception_resnet_v2_a1_3x3_3
I0905 18:39:26.553158 31924 net.cpp:434] inception_resnet_v2_a1_3x3_3 <- inception_resnet_v2_a1_3x3_2
I0905 18:39:26.553164 31924 net.cpp:408] inception_resnet_v2_a1_3x3_3 -> inception_resnet_v2_a1_3x3_3
I0905 18:39:26.554262 31924 net.cpp:150] Setting up inception_resnet_v2_a1_3x3_3
I0905 18:39:26.554276 31924 net.cpp:157] Top shape: 5 64 35 35 (392000)
I0905 18:39:26.554280 31924 net.cpp:165] Memory required for data: 484496240
I0905 18:39:26.554287 31924 layer_factory.hpp:77] Creating layer inception_resnet_v2_a1_3x3_3_bn
I0905 18:39:26.554298 31924 net.cpp:100] Creating Layer inception_resnet_v2_a1_3x3_3_bn
I0905 18:39:26.554302 31924 net.cpp:434] inception_resnet_v2_a1_3x3_3_bn <- inception_resnet_v2_a1_3x3_3
I0905 18:39:26.554309 31924 net.cpp:395] inception_resnet_v2_a1_3x3_3_bn -> inception_resnet_v2_a1_3x3_3 (in-place)
I0905 18:39:26.554493 31924 net.cpp:150] Setting up inception_resnet_v2_a1_3x3_3_bn
I0905 18:39:26.554502 31924 net.cpp:157] Top shape: 5 64 35 35 (392000)
I0905 18:39:26.554505 31924 net.cpp:165] Memory required for data: 486064240
I0905 18:39:26.554512 31924 layer_factory.hpp:77] Creating layer inception_resnet_v2_a1_3x3_3_scale
I0905 18:39:26.554518 31924 net.cpp:100] Creating Layer inception_resnet_v2_a1_3x3_3_scale
I0905 18:39:26.554522 31924 net.cpp:434] inception_resnet_v2_a1_3x3_3_scale <- inception_resnet_v2_a1_3x3_3
I0905 18:39:26.554527 31924 net.cpp:395] inception_resnet_v2_a1_3x3_3_scale -> inception_resnet_v2_a1_3x3_3 (in-place)
I0905 18:39:26.554570 31924 layer_factory.hpp:77] Creating layer inception_resnet_v2_a1_3x3_3_scale
I0905 18:39:26.554680 31924 net.cpp:150] Setting up inception_resnet_v2_a1_3x3_3_scale
I0905 18:39:26.554687 31924 net.cpp:157] Top shape: 5 64 35 35 (392000)
I0905 18:39:26.554690 31924 net.cpp:165] Memory required for data: 487632240
I0905 18:39:26.554697 31924 layer_factory.hpp:77] Creating layer inception_resnet_v2_a1_3x3_3_relu
I0905 18:39:26.554702 31924 net.cpp:100] Creating Layer inception_resnet_v2_a1_3x3_3_relu
I0905 18:39:26.554708 31924 net.cpp:434] inception_resnet_v2_a1_3x3_3_relu <- inception_resnet_v2_a1_3x3_3
I0905 18:39:26.554713 31924 net.cpp:395] inception_resnet_v2_a1_3x3_3_relu -> inception_resnet_v2_a1_3x3_3 (in-place)
I0905 18:39:26.554862 31924 net.cpp:150] Setting up inception_resnet_v2_a1_3x3_3_relu
I0905 18:39:26.554869 31924 net.cpp:157] Top shape: 5 64 35 35 (392000)
I0905 18:39:26.554873 31924 net.cpp:165] Memory required for data: 489200240
I0905 18:39:26.554877 31924 layer_factory.hpp:77] Creating layer inception_resnet_v2_a1_concat
I0905 18:39:26.554884 31924 net.cpp:100] Creating Layer inception_resnet_v2_a1_concat
I0905 18:39:26.554888 31924 net.cpp:434] inception_resnet_v2_a1_concat <- inception_resnet_v2_a1_1x1
I0905 18:39:26.554893 31924 net.cpp:434] inception_resnet_v2_a1_concat <- inception_resnet_v2_a1_3x3
I0905 18:39:26.554898 31924 net.cpp:434] inception_resnet_v2_a1_concat <- inception_resnet_v2_a1_3x3_3
I0905 18:39:26.554901 31924 net.cpp:408] inception_resnet_v2_a1_concat -> inception_resnet_v2_a1_concat
I0905 18:39:26.554929 31924 net.cpp:150] Setting up inception_resnet_v2_a1_concat
I0905 18:39:26.554935 31924 net.cpp:157] Top shape: 5 128 35 35 (784000)
I0905 18:39:26.554939 31924 net.cpp:165] Memory required for data: 492336240
I0905 18:39:26.554942 31924 layer_factory.hpp:77] Creating layer inception_resnet_v2_a1_up
I0905 18:39:26.554952 31924 net.cpp:100] Creating Layer inception_resnet_v2_a1_up
I0905 18:39:26.554956 31924 net.cpp:434] inception_resnet_v2_a1_up <- inception_resnet_v2_a1_concat
I0905 18:39:26.554963 31924 net.cpp:408] inception_resnet_v2_a1_up -> inception_resnet_v2_a1_up
I0905 18:39:26.556386 31924 net.cpp:150] Setting up inception_resnet_v2_a1_up
I0905 18:39:26.556401 31924 net.cpp:157] Top shape: 5 320 35 35 (1960000)
I0905 18:39:26.556404 31924 net.cpp:165] Memory required for data: 500176240
I0905 18:39:26.556414 31924 layer_factory.hpp:77] Creating layer inception_resnet_v2_a1_up_bn
I0905 18:39:26.556424 31924 net.cpp:100] Creating Layer inception_resnet_v2_a1_up_bn
I0905 18:39:26.556428 31924 net.cpp:434] inception_resnet_v2_a1_up_bn <- inception_resnet_v2_a1_up
I0905 18:39:26.556434 31924 net.cpp:395] inception_resnet_v2_a1_up_bn -> inception_resnet_v2_a1_up (in-place)
I0905 18:39:26.556625 31924 net.cpp:150] Setting up inception_resnet_v2_a1_up_bn
I0905 18:39:26.556632 31924 net.cpp:157] Top shape: 5 320 35 35 (1960000)
I0905 18:39:26.556637 31924 net.cpp:165] Memory required for data: 508016240
I0905 18:39:26.556655 31924 layer_factory.hpp:77] Creating layer inception_resnet_v2_a1_up_scale
I0905 18:39:26.556664 31924 net.cpp:100] Creating Layer inception_resnet_v2_a1_up_scale
I0905 18:39:26.556668 31924 net.cpp:434] inception_resnet_v2_a1_up_scale <- inception_resnet_v2_a1_up
I0905 18:39:26.556674 31924 net.cpp:395] inception_resnet_v2_a1_up_scale -> inception_resnet_v2_a1_up (in-place)
I0905 18:39:26.556716 31924 layer_factory.hpp:77] Creating layer inception_resnet_v2_a1_up_scale
I0905 18:39:26.556823 31924 net.cpp:150] Setting up inception_resnet_v2_a1_up_scale
I0905 18:39:26.556829 31924 net.cpp:157] Top shape: 5 320 35 35 (1960000)
I0905 18:39:26.556833 31924 net.cpp:165] Memory required for data: 515856240
I0905 18:39:26.556838 31924 layer_factory.hpp:77] Creating layer inception_resnet_v2_a1_residual_eltwise
I0905 18:39:26.556848 31924 net.cpp:100] Creating Layer inception_resnet_v2_a1_residual_eltwise
I0905 18:39:26.556851 31924 net.cpp:434] inception_resnet_v2_a1_residual_eltwise <- stem_concat_stem_concat_0_split_3
I0905 18:39:26.556860 31924 net.cpp:434] inception_resnet_v2_a1_residual_eltwise <- inception_resnet_v2_a1_up
I0905 18:39:26.556870 31924 net.cpp:408] inception_resnet_v2_a1_residual_eltwise -> inception_resnet_v2_a1_residual_eltwise
I0905 18:39:26.556896 31924 net.cpp:150] Setting up inception_resnet_v2_a1_residual_eltwise
I0905 18:39:26.556901 31924 net.cpp:157] Top shape: 5 320 35 35 (1960000)
I0905 18:39:26.556905 31924 net.cpp:165] Memory required for data: 523696240
I0905 18:39:26.556908 31924 layer_factory.hpp:77] Creating layer inception_resnet_v2_a1_residual_eltwise_relu
I0905 18:39:26.556917 31924 net.cpp:100] Creating Layer inception_resnet_v2_a1_residual_eltwise_relu
I0905 18:39:26.556921 31924 net.cpp:434] inception_resnet_v2_a1_residual_eltwise_relu <- inception_resnet_v2_a1_residual_eltwise
I0905 18:39:26.556926 31924 net.cpp:395] inception_resnet_v2_a1_residual_eltwise_relu -> inception_resnet_v2_a1_residual_eltwise (in-place)
I0905 18:39:26.557358 31924 net.cpp:150] Setting up inception_resnet_v2_a1_residual_eltwise_relu
I0905 18:39:26.557373 31924 net.cpp:157] Top shape: 5 320 35 35 (1960000)
I0905 18:39:26.557376 31924 net.cpp:165] Memory required for data: 531536240
I0905 18:39:26.557380 31924 layer_factory.hpp:77] Creating layer inception_resnet_v2_a1_residual_eltwise_inception_resnet_v2_a1_residual_eltwise_relu_0_split
I0905 18:39:26.557386 31924 net.cpp:100] Creating Layer inception_resnet_v2_a1_residual_eltwise_inception_resnet_v2_a1_residual_eltwise_relu_0_split
…
I0905 18:39:26.557409 31924 net.cpp:408] inception_resnet_v2_a1_residual_eltwise_inception_resnet_v2_a1_residual_eltwise_relu_0_split -> inception_resnet_v2_a1_residual_eltwise_inception_resnet_v2_a1_residual_eltwise_relu_0_split_2
I0905 18:39:26.557416 31924 net.cpp:408] inception_resnet_v2_a1_residual_eltwise_inception_resnet_v2_a1_residual_eltwise_relu_0_split -> inception_resnet_v2_a1_residual_eltwise_inception_resnet_v2_a1_residual_eltwise_relu_0_split_3
I0905 18:39:26.557477 31924 net.cpp:150] Setting up inception_resnet_v2_a1_residual_eltwise_inception_resnet_v2_a1_residual_eltwise_relu_0_split
I0905 18:39:26.557483 31924 net.cpp:157] Top shape: 5 320 35 35 (1960000)
I0905 18:39:26.557487 31924 net.cpp:157] Top shape: 5 320 35 35 (1960000)
I0905 18:39:26.557492 31924 net.cpp:157] Top shape: 5 320 35 35 (1960000)
I0905 18:39:26.557495 31924 net.cpp:157] Top shape: 5 320 35 35 (1960000)
I0905 18:39:26.557498 31924 net.cpp:165] Memory required for data: 562896240
I0905 18:39:26.557502 31924 layer_factory.hpp:77] Creating layer inception_resnet_v2_a2_1x1
I0905 18:39:26.557512 31924 net.cpp:100] Creating Layer inception_resnet_v2_a2_1x1
I0905 18:39:26.557517 31924 net.cpp:434] inception_resnet_v2_a2_1x1 <- inception_resnet_v2_a1_residual_eltwise_inception_resnet_v2_a1_residual_eltwise_relu_0_split_0
I0905 18:39:26.557525 31924 net.cpp:408] inception_resnet_v2_a2_1x1 -> inception_resnet_v2_a2_1x1
I0905 18:39:26.558548 31924 net.cpp:150] Setting up inception_resnet_v2_a2_1x1
I0905 18:39:26.558563 31924 net.cpp:157] Top shape: 5 32 35 35 (196000)
I0905 18:39:26.558568 31924 net.cpp:165] Memory required for data: 563680240
I0905 18:39:26.558573 31924 layer_factory.hpp:77] Creating layer inception_resnet_v2_a2_1x1_bn
I0905 18:39:26.558583 31924 net.cpp:100] Creating Layer inception_resnet_v2_a2_1x1_bn
I0905 18:39:26.558588 31924 net.cpp:434] inception_resnet_v2_a2_1x1_bn <- inception_resnet_v2_a2_1x1
I0905 18:39:26.558598 31924 net.cpp:395] inception_resnet_v2_a2_1x1_bn -> inception_resnet_v2_a2_1x1 (in-place)
I0905 18:39:26.558784 31924 net.cpp:150] Setting up inception_resnet_v2_a2_1x1_bn
I0905 18:39:26.558790 31924 net.cpp:157] Top shape: 5 32 35 35 (196000)
I0905 18:39:26.558794 31924 net.cpp:165] Memory required for data: 564464240
I0905 18:39:26.558801 31924 layer_factory.hpp:77] Creating layer inception_resnet_v2_a2_1x1_scale
I0905 18:39:26.558812 31924 net.cpp:100] Creating Layer inception_resnet_v2_a2_1x1_scale
I0905 18:39:26.558816 31924 net.cpp:434] inception_resnet_v2_a2_1x1_scale <- inception_resnet_v2_a2_1x1
I0905 18:39:26.558822 31924 net.cpp:395] inception_resnet_v2_a2_1x1_scale -> inception_resnet_v2_a2_1x1 (in-place)
I0905 18:39:26.558861 31924 layer_factory.hpp:77] Creating layer inception_resnet_v2_a2_1x1_scale
I0905 18:39:26.558969 31924 net.cpp:150] Setting up inception_resnet_v2_a2_1x1_scale
I0905 18:39:26.558975 31924 net.cpp:157] Top shape: 5 32 35 35 (196000)
I0905 18:39:26.558979 31924 net.cpp:165] Memory required for data: 565248240
I0905 18:39:26.558984 31924 layer_factory.hpp:77] Creating layer inception_resnet_v2_a2_1x1_relu
I0905 18:39:26.558991 31924 net.cpp:100] Creating Layer inception_resnet_v2_a2_1x1_relu
I0905 18:39:26.558995 31924 net.cpp:434] inception_resnet_v2_a2_1x1_relu <- inception_resnet_v2_a2_1x1
I0905 18:39:26.559000 31924 net.cpp:395] inception_resnet_v2_a2_1x1_relu -> inception_resnet_v2_a2_1x1 (in-place)
I0905 18:39:26.559155 31924 net.cpp:150] Setting up inception_resnet_v2_a2_1x1_relu
I0905 18:39:26.559164 31924 net.cpp:157] Top shape: 5 32 35 35 (196000)
I0905 18:39:26.559167 31924 net.cpp:165] Memory required for data: 566032240
I0905 18:39:26.559170 31924 layer_factory.hpp:77] Creating layer inception_resnet_v2_a2_3x3_reduce
I0905 18:39:26.559180 31924 net.cpp:100] Creating Layer inception_resnet_v2_a2_3x3_reduce
I0905 18:39:26.559185 31924 net.cpp:434] inception_resnet_v2_a2_3x3_reduce <- inception_resnet_v2_a1_residual_eltwise_inception_resnet_v2_a1_residual_eltwise_relu_0_split_1
I0905 18:39:26.559193 31924 net.cpp:408] inception_resnet_v2_a2_3x3_reduce -> inception_resnet_v2_a2_3x3_reduce
I0905 18:39:26.560215 31924 net.cpp:150] Setting up inception_resnet_v2_a2_3x3_reduce
I0905 18:39:26.560230 31924 net.cpp:157] Top shape: 5 32 35 35 (196000)
I0905 18:39:26.560233 31924 net.cpp:165] Memory required for data: 566816240
I0905 18:39:26.560240 31924 layer_factory.hpp:77] Creating layer inception_resnet_v2_a2_3x3_reduce_bn
I0905 18:39:26.560250 31924 net.cpp:100] Creating Layer inception_resnet_v2_a2_3x3_reduce_bn
I0905 18:39:26.560255 31924 net.cpp:434] inception_resnet_v2_a2_3x3_reduce_bn <- inception_resnet_v2_a2_3x3_reduce
I0905 18:39:26.560261 31924 net.cpp:395] inception_resnet_v2_a2_3x3_reduce_bn -> inception_resnet_v2_a2_3x3_reduce (in-place)
I0905 18:39:26.560443 31924 net.cpp:150] Setting up inception_resnet_v2_a2_3x3_reduce_bn
I0905 18:39:26.560451 31924 net.cpp:157] Top shape: 5 32 35 35 (196000)
I0905 18:39:26.560454 31924 net.cpp:165] Memory required for data: 567600240
I0905 18:39:26.560461 31924 layer_factory.hpp:77] Creating layer inception_resnet_v2_a2_3x3_reduce_scale
I0905 18:39:26.560468 31924 net.cpp:100] Creating Layer inception_resnet_v2_a2_3x3_reduce_scale
I0905 18:39:26.560472 31924 net.cpp:434] inception_resnet_v2_a2_3x3_reduce_scale <- inception_resnet_v2_a2_3x3_reduce
I0905 18:39:26.560478 31924 net.cpp:395] inception_resnet_v2_a2_3x3_reduce_scale -> inception_resnet_v2_a2_3x3_reduce (in-place)
I0905 18:39:26.560516 31924 layer_factory.hpp:77] Creating layer inception_resnet_v2_a2_3x3_reduce_scale
I0905 18:39:26.560621 31924 net.cpp:150] Setting up inception_resnet_v2_a2_3x3_reduce_scale
I0905 18:39:26.560629 31924 net.cpp:157] Top shape: 5 32 35 35 (196000)
I0905 18:39:26.560632 31924 net.cpp:165] Memory required for data: 568384240
I0905 18:39:26.560638 31924 layer_factory.hpp:77] Creating layer inception_resnet_v2_a2_3x3_reduce_relu
I0905 18:39:26.560644 31924 net.cpp:100] Creating Layer inception_resnet_v2_a2_3x3_reduce_relu
I0905 18:39:26.560652 31924 net.cpp:434] inception_resnet_v2_a2_3x3_reduce_relu <- inception_resnet_v2_a2_3x3_reduce
I0905 18:39:26.560662 31924 net.cpp:395] inception_resnet_v2_a2_3x3_reduce_relu -> inception_resnet_v2_a2_3x3_reduce (in-place)
I0905 18:39:26.560820 31924 net.cpp:150] Setting up inception_resnet_v2_a2_3x3_reduce_relu
I0905 18:39:26.560829 31924 net.cpp:157] Top shape: 5 32 35 35 (196000)
I0905 18:39:26.560833 31924 net.cpp:165] Memory required for data: 569168240
I0905 18:39:26.560837 31924 layer_factory.hpp:77] Creating layer inception_resnet_v2_a2_3x3
I0905 18:39:26.560848 31924 net.cpp:100] Creating Layer inception_resnet_v2_a2_3x3
I0905 18:39:26.560853 31924 net.cpp:434] inception_resnet_v2_a2_3x3 <- inception_resnet_v2_a2_3x3_reduce
I0905 18:39:26.560860 31924 net.cpp:408] inception_resnet_v2_a2_3x3 -> inception_resnet_v2_a2_3x3
I0905 18:39:26.561885 31924 net.cpp:150] Setting up inception_resnet_v2_a2_3x3
I0905 18:39:26.561899 31924 net.cpp:157] Top shape: 5 32 35 35 (196000)
I0905 18:39:26.561903 31924 net.cpp:165] Memory required for data: 569952240
I0905 18:39:26.561909 31924 layer_factory.hpp:77] Creating layer inception_resnet_v2_a2_3x3_bn
I0905 18:39:26.561916 31924 net.cpp:100] Creating Layer inception_resnet_v2_a2_3x3_bn
I0905 18:39:26.561921 31924 net.cpp:434] inception_resnet_v2_a2_3x3_bn <- inception_resnet_v2_a2_3x3
I0905 18:39:26.561928 31924 net.cpp:395] inception_resnet_v2_a2_3x3_bn -> inception_resnet_v2_a2_3x3 (in-place)
I0905 18:39:26.562113 31924 net.cpp:150] Setting up inception_resnet_v2_a2_3x3_bn
I0905 18:39:26.562119 31924 net.cpp:157] Top shape: 5 32 35 35 (196000)
I0905 18:39:26.562122 31924 net.cpp:165] Memory required for data: 570736240
I0905 18:39:26.562130 31924 layer_factory.hpp:77] Creating layer inception_resnet_v2_a2_3x3_scale
I0905 18:39:26.562136 31924 net.cpp:100] Creating Layer inception_resnet_v2_a2_3x3_scale
I0905 18:39:26.562140 31924 net.cpp:434] inception_resnet_v2_a2_3x3_scale <- inception_resnet_v2_a2_3x3
I0905 18:39:26.562147 31924 net.cpp:395] inception_resnet_v2_a2_3x3_scale -> inception_resnet_v2_a2_3x3 (in-place)
I0905 18:39:26.562182 31924 layer_factory.hpp:77] Creating layer inception_resnet_v2_a2_3x3_scale
I0905 18:39:26.562289 31924 net.cpp:150] Setting up inception_resnet_v2_a2_3x3_scale
I0905 18:39:26.562296 31924 net.cpp:157] Top shape: 5 32 35 35 (196000)
I0905 18:39:26.562299 31924 net.cpp:165] Memory required for data: 571520240
I0905 18:39:26.562305 31924 layer_factory.hpp:77] Creating layer inception_resnet_v2_a2_3x3_relu
I0905 18:39:26.562311 31924 net.cpp:100] Creating Layer inception_resnet_v2_a2_3x3_relu
I0905 18:39:26.562315 31924 net.cpp:434] inception_resnet_v2_a2_3x3_relu <- inception_resnet_v2_a2_3x3
I0905 18:39:26.562321 31924 net.cpp:395] inception_resnet_v2_a2_3x3_relu -> inception_resnet_v2_a2_3x3 (in-place)
I0905 18:39:26.562480 31924 net.cpp:150] Setting up inception_resnet_v2_a2_3x3_relu
I0905 18:39:26.562489 31924 net.cpp:157] Top shape: 5 32 35 35 (196000)
I0905 18:39:26.562494 31924 net.cpp:165] Memory required for data: 572304240
I0905 18:39:26.562497 31924 layer_factory.hpp:77] Creating layer inception_resnet_v2_a2_3x3_2_reduce
I0905 18:39:26.562508 31924 net.cpp:100] Creating Layer inception_resnet_v2_a2_3x3_2_reduce
I0905 18:39:26.562513 31924 net.cpp:434] inception_resnet_v2_a2_3x3_2_reduce <- inception_resnet_v2_a1_residual_eltwise_inception_resnet_v2_a1_residual_eltwise_relu_0_split_2
I0905 18:39:26.562520 31924 net.cpp:408] inception_resnet_v2_a2_3x3_2_reduce -> inception_resnet_v2_a2_3x3_2_reduce
I0905 18:39:26.563546 31924 net.cpp:150] Setting up inception_resnet_v2_a2_3x3_2_reduce
I0905 18:39:26.563560 31924 net.cpp:157] Top shape: 5 32 35 35 (196000)
I0905 18:39:26.563565 31924 net.cpp:165] Memory required for data: 573088240
I0905 18:39:26.563570 31924 layer_factory.hpp:77] Creating layer inception_resnet_v2_a2_3x3_2_reduce_bn
I0905 18:39:26.563580 31924 net.cpp:100] Creating Layer inception_resnet_v2_a2_3x3_2_reduce_bn
I0905 18:39:26.563583 31924 net.cpp:434] inception_resnet_v2_a2_3x3_2_reduce_bn <- inception_resnet_v2_a2_3x3_2_reduce
I0905 18:39:26.563596 31924 net.cpp:395] inception_resnet_v2_a2_3x3_2_reduce_bn -> inception_resnet_v2_a2_3x3_2_reduce (in-place)
I0905 18:39:26.563786 31924 net.cpp:150] Setting up inception_resnet_v2_a2_3x3_2_reduce_bn
I0905 18:39:26.563793 31924 net.cpp:157] Top shape: 5 32 35 35 (196000)
I0905 18:39:26.563797 31924 net.cpp:165] Memory required for data: 573872240
I0905 18:39:26.563805 31924 layer_factory.hpp:77] Creating layer inception_resnet_v2_a2_3x3_2_reduce_scale
I0905 18:39:26.563815 31924 net.cpp:100] Creating Layer inception_resnet_v2_a2_3x3_2_reduce_scale
I0905 18:39:26.563819 31924 net.cpp:434] inception_resnet_v2_a2_3x3_2_reduce_scale <- inception_resnet_v2_a2_3x3_2_reduce
I0905 18:39:26.563824 31924 net.cpp:395] inception_resnet_v2_a2_3x3_2_reduce_scale -> inception_resnet_v2_a2_3x3_2_reduce (in-place)
I0905 18:39:26.563863 31924 layer_factory.hpp:77] Creating layer inception_resnet_v2_a2_3x3_2_reduce_scale
I0905 18:39:26.563968 31924 net.cpp:150] Setting up inception_resnet_v2_a2_3x3_2_reduce_scale
I0905 18:39:26.563976 31924 net.cpp:157] Top shape: 5 32 35 35 (196000)
I0905 18:39:26.563978 31924 net.cpp:165] Memory required for data: 574656240
I0905 18:39:26.563984 31924 layer_factory.hpp:77] Creating layer inception_resnet_v2_a2_3x3_2_reduce_relu
I0905 18:39:26.563989 31924 net.cpp:100] Creating Layer inception_resnet_v2_a2_3x3_2_reduce_relu
I0905 18:39:26.563993 31924 net.cpp:434] inception_resnet_v2_a2_3x3_2_reduce_relu <- inception_resnet_v2_a2_3x3_2_reduce
I0905 18:39:26.563999 31924 net.cpp:395] inception_resnet_v2_a2_3x3_2_reduce_relu -> inception_resnet_v2_a2_3x3_2_reduce (in-place)
I0905 18:39:26.564153 31924 net.cpp:150] Setting up inception_resnet_v2_a2_3x3_2_reduce_relu
I0905 18:39:26.564162 31924 net.cpp:157] Top shape: 5 32 35 35 (196000)
I0905 18:39:26.564165 31924 net.cpp:165] Memory required for data: 575440240
I0905 18:39:26.564169 31924 layer_factory.hpp:77] Creating layer inception_resnet_v2_a2_3x3_2
I0905 18:39:26.564179 31924 net.cpp:100] Creating Layer inception_resnet_v2_a2_3x3_2
I0905 18:39:26.564183 31924 net.cpp:434] inception_resnet_v2_a2_3x3_2 <- inception_resnet_v2_a2_3x3_2_reduce
I0905 18:39:26.564190 31924 net.cpp:408] inception_resnet_v2_a2_3x3_2 -> inception_resnet_v2_a2_3x3_2
I0905 18:39:26.565232 31924 net.cpp:150] Setting up inception_resnet_v2_a2_3x3_2
I0905 18:39:26.565248 31924 net.cpp:157] Top shape: 5 48 35 35 (294000)
I0905 18:39:26.565251 31924 net.cpp:165] Memory required for data: 576616240
I0905 18:39:26.565258 31924 layer_factory.hpp:77] Creating layer inception_resnet_v2_a2_3x3_2_bn
I0905 18:39:26.565266 31924 net.cpp:100] Creating Layer inception_resnet_v2_a2_3x3_2_bn
I0905 18:39:26.565271 31924 net.cpp:434] inception_resnet_v2_a2_3x3_2_bn <- inception_resnet_v2_a2_3x3_2
I0905 18:39:26.565279 31924 net.cpp:395] inception_resnet_v2_a2_3x3_2_bn -> inception_resnet_v2_a2_3x3_2 (in-place)
I0905 18:39:26.565465 31924 net.cpp:150] Setting up inception_resnet_v2_a2_3x3_2_bn
I0905 18:39:26.565472 31924 net.cpp:157] Top shape: 5 48 35 35 (294000)
I0905 18:39:26.565475 31924 net.cpp:165] Memory required for data: 577792240
I0905 18:39:26.565484 31924 layer_factory.hpp:77] Creating layer inception_resnet_v2_a2_3x3_2_scale
I0905 18:39:26.565490 31924 net.cpp:100] Creating Layer inception_resnet_v2_a2_3x3_2_scale
I0905 18:39:26.565493 31924 net.cpp:434] inception_resnet_v2_a2_3x3_2_scale <- inception_resnet_v2_a2_3x3_2
I0905 18:39:26.565500 31924 net.cpp:395] inception_resnet_v2_a2_3x3_2_scale -> inception_resnet_v2_a2_3x3_2 (in-place)
I0905 18:39:26.565536 31924 layer_factory.hpp:77] Creating layer inception_resnet_v2_a2_3x3_2_scale
I0905 18:39:26.565644 31924 net.cpp:150] Setting up inception_resnet_v2_a2_3x3_2_scale
I0905 18:39:26.565650 31924 net.cpp:157] Top shape: 5 48 35 35 (294000)
I0905 18:39:26.565654 31924 net.cpp:165] Memory required for data: 578968240
I0905 18:39:26.565659 31924 layer_factory.hpp:77] Creating layer inception_resnet_v2_a2_3x3_2_relu
I0905 18:39:26.565665 31924 net.cpp:100] Creating Layer inception_resnet_v2_a2_3x3_2_relu
I0905 18:39:26.565673 31924 net.cpp:434] inception_resnet_v2_a2_3x3_2_relu <- inception_resnet_v2_a2_3x3_2
I0905 18:39:26.565686 31924 net.cpp:395] inception_resnet_v2_a2_3x3_2_relu -> inception_resnet_v2_a2_3x3_2 (in-place)
I0905 18:39:26.565840 31924 net.cpp:150] Setting up inception_resnet_v2_a2_3x3_2_relu
I0905 18:39:26.565847 31924 net.cpp:157] Top shape: 5 48 35 35 (294000)
I0905 18:39:26.565851 31924 net.cpp:165] Memory required for data: 580144240
I0905 18:39:26.565855 31924 layer_factory.hpp:77] Creating layer inception_resnet_v2_a2_3x3_3
I0905 18:39:26.565866 31924 net.cpp:100] Creating Layer inception_resnet_v2_a2_3x3_3
I0905 18:39:26.565871 31924 net.cpp:434] inception_resnet_v2_a2_3x3_3 <- inception_resnet_v2_a2_3x3_2
I0905 18:39:26.565878 31924 net.cpp:408] inception_resnet_v2_a2_3x3_3 -> inception_resnet_v2_a2_3x3_3
I0905 18:39:26.567253 31924 net.cpp:150] Setting up inception_resnet_v2_a2_3x3_3
I0905 18:39:26.567268 31924 net.cpp:157] Top shape: 5 64 35 35 (392000)
I0905 18:39:26.567272 31924 net.cpp:165] Memory required for data: 581712240
I0905 18:39:26.567279 31924 layer_factory.hpp:77] Creating layer inception_resnet_v2_a2_3x3_3_bn
I0905 18:39:26.567288 31924 net.cpp:100] Creating Layer inception_resnet_v2_a2_3x3_3_bn
I0905 18:39:26.567293 31924 net.cpp:434] inception_resnet_v2_a2_3x3_3_bn <- inception_resnet_v2_a2_3x3_3
I0905 18:39:26.567298 31924 net.cpp:395] inception_resnet_v2_a2_3x3_3_bn -> inception_resnet_v2_a2_3x3_3 (in-place)
I0905 18:39:26.567492 31924 net.cpp:150] Setting up inception_resnet_v2_a2_3x3_3_bn
I0905 18:39:26.567498 31924 net.cpp:157] Top shape: 5 64 35 35 (392000)
I0905 18:39:26.567502 31924 net.cpp:165] Memory required for data: 583280240
I0905 18:39:26.567510 31924 layer_factory.hpp:77] Creating layer inception_resnet_v2_a2_3x3_3_scale
I0905 18:39:26.567517 31924 net.cpp:100] Creating Layer inception_resnet_v2_a2_3x3_3_scale
I0905 18:39:26.567520 31924 net.cpp:434] inception_resnet_v2_a2_3x3_3_scale <- inception_resnet_v2_a2_3x3_3
I0905 18:39:26.567525 31924 net.cpp:395] inception_resnet_v2_a2_3x3_3_scale -> inception_resnet_v2_a2_3x3_3 (in-place)
I0905 18:39:26.567565 31924 layer_factory.hpp:77] Creating layer inception_resnet_v2_a2_3x3_3_scale
I0905 18:39:26.567674 31924 net.cpp:150] Setting up inception_resnet_v2_a2_3x3_3_scale
I0905 18:39:26.567682 31924 net.cpp:157] Top shape: 5 64 35 35 (392000)
I0905 18:39:26.567684 31924 net.cpp:165] Memory required for data: 584848240
I0905 18:39:26.567690 31924 layer_factory.hpp:77] Creating layer inception_resnet_v2_a2_3x3_3_relu
I0905 18:39:26.567697 31924 net.cpp:100] Creating Layer inception_resnet_v2_a2_3x3_3_relu
I0905 18:39:26.567700 31924 net.cpp:434] inception_resnet_v2_a2_3x3_3_relu <- inception_resnet_v2_a2_3x3_3
I0905 18:39:26.567705 31924 net.cpp:395] inception_resnet_v2_a2_3x3_3_relu -> inception_resnet_v2_a2_3x3_3 (in-place)
I0905 18:39:26.568140 31924 net.cpp:150] Setting up inception_resnet_v2_a2_3x3_3_relu
I0905 18:39:26.568152 31924 net.cpp:157] Top shape: 5 64 35 35 (392000)
I0905 18:39:26.568156 31924 net.cpp:165] Memory required for data: 586416240
I0905 18:39:26.568161 31924 layer_factory.hpp:77] Creating layer inception_resnet_v2_a2_concat
I0905 18:39:26.568167 31924 net.cpp:100] Creating Layer inception_resnet_v2_a2_concat
I0905 18:39:26.568172 31924 net.cpp:434] inception_resnet_v2_a2_concat <- inception_resnet_v2_a2_1x1
I0905 18:39:26.568177 31924 net.cpp:434] inception_resnet_v2_a2_concat <- inception_resnet_v2_a2_3x3
I0905 18:39:26.568181 31924 net.cpp:434] inception_resnet_v2_a2_concat <- inception_resnet_v2_a2_3x3_3
I0905 18:39:26.568188 31924 net.cpp:408] inception_resnet_v2_a2_concat -> inception_resnet_v2_a2_concat
I0905 18:39:26.568217 31924 net.cpp:150] Setting up inception_resnet_v2_a2_concat
I0905 18:39:26.568222 31924 net.cpp:157] Top shape: 5 128 35 35 (784000)
I0905 18:39:26.568225 31924 net.cpp:165] Memory required for data: 589552240
I0905 18:39:26.568228 31924 layer_factory.hpp:77] Creating layer inception_resnet_v2_a2_up
I0905 18:39:26.568243 31924 net.cpp:100] Creating Layer inception_resnet_v2_a2_up
I0905 18:39:26.568250 31924 net.cpp:434] inception_resnet_v2_a2_up <- inception_resnet_v2_a2_concat
I0905 18:39:26.568264 31924 net.cpp:408] inception_resnet_v2_a2_up -> inception_resnet_v2_a2_up
I0905 18:39:26.569443 31924 net.cpp:150] Setting up inception_resnet_v2_a2_up
I0905 18:39:26.569456 31924 net.cpp:157] Top shape: 5 320 35 35 (1960000)
I0905 18:39:26.569461 31924 net.cpp:165] Memory required for data: 597392240
I0905 18:39:26.569468 31924 layer_factory.hpp:77] Creating layer inception_resnet_v2_a2_up_bn
I0905 18:39:26.569478 31924 net.cpp:100] Creating Layer inception_resnet_v2_a2_up_bn
I0905 18:39:26.569483 31924 net.cpp:434] inception_resnet_v2_a2_up_bn <- inception_resnet_v2_a2_up
I0905 18:39:26.569489 31924 net.cpp:395] inception_resnet_v2_a2_up_bn -> inception_resnet_v2_a2_up (in-place)
I0905 18:39:26.569686 31924 net.cpp:150] Setting up inception_resnet_v2_a2_up_bn
I0905 18:39:26.569694 31924 net.cpp:157] Top shape: 5 320 35 35 (1960000)
I0905 18:39:26.569697 31924 net.cpp:165] Memory required for data: 605232240
I0905 18:39:26.569705 31924 layer_factory.hpp:77] Creating layer inception_resnet_v2_a2_up_scale
I0905 18:39:26.569710 31924 net.cpp:100] Creating Layer inception_resnet_v2_a2_up_scale
I0905 18:39:26.569715 31924 net.cpp:434] inception_resnet_v2_a2_up_scale <- inception_resnet_v2_a2_up
I0905 18:39:26.569720 31924 net.cpp:395] inception_resnet_v2_a2_up_scale -> inception_resnet_v2_a2_up (in-place)
I0905 18:39:26.569762 31924 layer_factory.hpp:77] Creating layer inception_resnet_v2_a2_up_scale
I0905 18:39:26.569871 31924 net.cpp:150] Setting up inception_resnet_v2_a2_up_scale
I0905 18:39:26.569878 31924 net.cpp:157] Top shape: 5 320 35 35 (1960000)
I0905 18:39:26.569881 31924 net.cpp:165] Memory required for data: 613072240
I0905 18:39:26.569887 31924 layer_factory.hpp:77] Creating layer inception_resnet_v2_a2_residual_eltwise
I0905 18:39:26.569895 31924 net.cpp:100] Creating Layer inception_resnet_v2_a2_residual_eltwise
I0905 18:39:26.569898 31924 net.cpp:434] inception_resnet_v2_a2_residual_eltwise <- inception_resnet_v2_a1_residual_eltwise_inception_resnet_v2_a1_residual_eltwise_relu_0_split_3
I0905 18:39:26.569905 31924 net.cpp:434] inception_resnet_v2_a2_residual_eltwise <- inception_resnet_v2_a2_up
I0905 18:39:26.569910 31924 net.cpp:408] inception_resnet_v2_a2_residual_eltwise -> inception_resnet_v2_a2_residual_eltwise
I0905 18:39:26.569933 31924 net.cpp:150] Setting up inception_resnet_v2_a2_residual_eltwise
I0905 18:39:26.569938 31924 net.cpp:157] Top shape: 5 320 35 35 (1960000)
I0905 18:39:26.569942 31924 net.cpp:165] Memory required for data: 620912240
I0905 18:39:26.569947 31924 layer_factory.hpp:77] Creating layer inception_resnet_v2_a2_residual_eltwise_relu
I0905 18:39:26.569952 31924 net.cpp:100] Creating Layer inception_resnet_v2_a2_residual_eltwise_relu
I0905 18:39:26.569957 31924 net.cpp:434] inception_resnet_v2_a2_residual_eltwise_relu <- inception_resnet_v2_a2_residual_eltwise
I0905 18:39:26.569960 31924 net.cpp:395] inception_resnet_v2_a2_residual_eltwise_relu -> inception_resnet_v2_a2_residual_eltwise (in-place)
I0905 18:39:26.570116 31924 net.cpp:150] Setting up inception_resnet_v2_a2_residual_eltwise_relu
I0905 18:39:26.570123 31924 net.cpp:157] Top shape: 5 320 35 35 (1960000)
I0905 18:39:26.570127 31924 net.cpp:165] Memory required for data: 628752240
I0905 18:39:26.570130 31924 layer_factory.hpp:77] Creating layer inception_resnet_v2_a2_residual_eltwise_inception_resnet_v2_a2_residual_eltwise_relu_0_split
I0905 18:39:26.570137 31924 net.cpp:100] Creating Layer inception_resnet_v2_a2_residual_eltwise_inception_resnet_v2_a2_residual_eltwise_relu_0_split
…
I0905 18:39:26.667366 31924 net.cpp:408] inception_resnet_v2_a9_residual_eltwise_inception_resnet_v2_a9_residual_eltwise_relu_0_split -> inception_resnet_v2_a9_residual_eltwise_inception_resnet_v2_a9_residual_eltwise_relu_0_split_2
I0905 18:39:26.667371 31924 net.cpp:408] inception_resnet_v2_a9_residual_eltwise_inception_resnet_v2_a9_residual_eltwise_relu_0_split -> inception_resnet_v2_a9_residual_eltwise_inception_resnet_v2_a9_residual_eltwise_relu_0_split_3
I0905 18:39:26.667440 31924 net.cpp:150] Setting up inception_resnet_v2_a9_residual_eltwise_inception_resnet_v2_a9_residual_eltwise_relu_0_split
I0905 18:39:26.667446 31924 net.cpp:157] Top shape: 5 320 35 35 (1960000)
I0905 18:39:26.667450 31924 net.cpp:157] Top shape: 5 320 35 35 (1960000)
I0905 18:39:26.667454 31924 net.cpp:157] Top shape: 5 320 35 35 (1960000)
I0905 18:39:26.667464 31924 net.cpp:157] Top shape: 5 320 35 35 (1960000)
I0905 18:39:26.667472 31924 net.cpp:165] Memory required for data: 1340624240
I0905 18:39:26.667476 31924 layer_factory.hpp:77] Creating layer inception_resnet_v2_a10_1x1
I0905 18:39:26.667490 31924 net.cpp:100] Creating Layer inception_resnet_v2_a10_1x1
I0905 18:39:26.667495 31924 net.cpp:434] inception_resnet_v2_a10_1x1 <- inception_resnet_v2_a9_residual_eltwise_inception_resnet_v2_a9_residual_eltwise_relu_0_split_0
I0905 18:39:26.667500 31924 net.cpp:408] inception_resnet_v2_a10_1x1 -> inception_resnet_v2_a10_1x1
I0905 18:39:26.668604 31924 net.cpp:150] Setting up inception_resnet_v2_a10_1x1
I0905 18:39:26.668618 31924 net.cpp:157] Top shape: 5 32 35 35 (196000)
I0905 18:39:26.668623 31924 net.cpp:165] Memory required for data: 1341408240
I0905 18:39:26.668629 31924 layer_factory.hpp:77] Creating layer inception_resnet_v2_a10_1x1_bn
I0905 18:39:26.668638 31924 net.cpp:100] Creating Layer inception_resnet_v2_a10_1x1_bn
I0905 18:39:26.668643 31924 net.cpp:434] inception_resnet_v2_a10_1x1_bn <- inception_resnet_v2_a10_1x1
I0905 18:39:26.668650 31924 net.cpp:395] inception_resnet_v2_a10_1x1_bn -> inception_resnet_v2_a10_1x1 (in-place)
I0905 18:39:26.668864 31924 net.cpp:150] Setting up inception_resnet_v2_a10_1x1_bn
I0905 18:39:26.668871 31924 net.cpp:157] Top shape: 5 32 35 35 (196000)
I0905 18:39:26.668875 31924 net.cpp:165] Memory required for data: 1342192240
I0905 18:39:26.668882 31924 layer_factory.hpp:77] Creating layer inception_resnet_v2_a10_1x1_scale
I0905 18:39:26.668891 31924 net.cpp:100] Creating Layer inception_resnet_v2_a10_1x1_scale
I0905 18:39:26.668895 31924 net.cpp:434] inception_resnet_v2_a10_1x1_scale <- inception_resnet_v2_a10_1x1
I0905 18:39:26.668900 31924 net.cpp:395] inception_resnet_v2_a10_1x1_scale -> inception_resnet_v2_a10_1x1 (in-place)
I0905 18:39:26.668947 31924 layer_factory.hpp:77] Creating layer inception_resnet_v2_a10_1x1_scale
I0905 18:39:26.669076 31924 net.cpp:150] Setting up inception_resnet_v2_a10_1x1_scale
I0905 18:39:26.669083 31924 net.cpp:157] Top shape: 5 32 35 35 (196000)
I0905 18:39:26.669087 31924 net.cpp:165] Memory required for data: 1342976240
I0905 18:39:26.669092 31924 layer_factory.hpp:77] Creating layer inception_resnet_v2_a10_1x1_relu
I0905 18:39:26.669100 31924 net.cpp:100] Creating Layer inception_resnet_v2_a10_1x1_relu
I0905 18:39:26.669104 31924 net.cpp:434] inception_resnet_v2_a10_1x1_relu <- inception_resnet_v2_a10_1x1
I0905 18:39:26.669108 31924 net.cpp:395] inception_resnet_v2_a10_1x1_relu -> inception_resnet_v2_a10_1x1 (in-place)
I0905 18:39:26.669277 31924 net.cpp:150] Setting up inception_resnet_v2_a10_1x1_relu
I0905 18:39:26.669286 31924 net.cpp:157] Top shape: 5 32 35 35 (196000)
I0905 18:39:26.669289 31924 net.cpp:165] Memory required for data: 1343760240
I0905 18:39:26.669293 31924 layer_factory.hpp:77] Creating layer inception_resnet_v2_a10_3x3_reduce
I0905 18:39:26.669303 31924 net.cpp:100] Creating Layer inception_resnet_v2_a10_3x3_reduce
I0905 18:39:26.669308 31924 net.cpp:434] inception_resnet_v2_a10_3x3_reduce <- inception_resnet_v2_a9_residual_eltwise_inception_resnet_v2_a9_residual_eltwise_relu_0_split_1
I0905 18:39:26.669317 31924 net.cpp:408] inception_resnet_v2_a10_3x3_reduce -> inception_resnet_v2_a10_3x3_reduce
I0905 18:39:26.670429 31924 net.cpp:150] Setting up inception_resnet_v2_a10_3x3_reduce
I0905 18:39:26.670444 31924 net.cpp:157] Top shape: 5 32 35 35 (196000)
I0905 18:39:26.670447 31924 net.cpp:165] Memory required for data: 1344544240
I0905 18:39:26.670454 31924 layer_factory.hpp:77] Creating layer inception_resnet_v2_a10_3x3_reduce_bn
I0905 18:39:26.670464 31924 net.cpp:100] Creating Layer inception_resnet_v2_a10_3x3_reduce_bn
I0905 18:39:26.670469 31924 net.cpp:434] inception_resnet_v2_a10_3x3_reduce_bn <- inception_resnet_v2_a10_3x3_reduce
I0905 18:39:26.670475 31924 net.cpp:395] inception_resnet_v2_a10_3x3_reduce_bn -> inception_resnet_v2_a10_3x3_reduce (in-place)
I0905 18:39:26.670692 31924 net.cpp:150] Setting up inception_resnet_v2_a10_3x3_reduce_bn
I0905 18:39:26.670704 31924 net.cpp:157] Top shape: 5 32 35 35 (196000)
I0905 18:39:26.670713 31924 net.cpp:165] Memory required for data: 1345328240
I0905 18:39:26.670722 31924 layer_factory.hpp:77] Creating layer inception_resnet_v2_a10_3x3_reduce_scale
I0905 18:39:26.670728 31924 net.cpp:100] Creating Layer inception_resnet_v2_a10_3x3_reduce_scale
I0905 18:39:26.670732 31924 net.cpp:434] inception_resnet_v2_a10_3x3_reduce_scale <- inception_resnet_v2_a10_3x3_reduce
I0905 18:39:26.670737 31924 net.cpp:395] inception_resnet_v2_a10_3x3_reduce_scale -> inception_resnet_v2_a10_3x3_reduce (in-place)
I0905 18:39:26.670784 31924 layer_factory.hpp:77] Creating layer inception_resnet_v2_a10_3x3_reduce_scale
I0905 18:39:26.670917 31924 net.cpp:150] Setting up inception_resnet_v2_a10_3x3_reduce_scale
I0905 18:39:26.670923 31924 net.cpp:157] Top shape: 5 32 35 35 (196000)
I0905 18:39:26.670927 31924 net.cpp:165] Memory required for data: 1346112240
I0905 18:39:26.670933 31924 layer_factory.hpp:77] Creating layer inception_resnet_v2_a10_3x3_reduce_relu
I0905 18:39:26.670938 31924 net.cpp:100] Creating Layer inception_resnet_v2_a10_3x3_reduce_relu
I0905 18:39:26.670941 31924 net.cpp:434] inception_resnet_v2_a10_3x3_reduce_relu <- inception_resnet_v2_a10_3x3_reduce
I0905 18:39:26.670946 31924 net.cpp:395] inception_resnet_v2_a10_3x3_reduce_relu -> inception_resnet_v2_a10_3x3_reduce (in-place)
I0905 18:39:26.671115 31924 net.cpp:150] Setting up inception_resnet_v2_a10_3x3_reduce_relu
I0905 18:39:26.671123 31924 net.cpp:157] Top shape: 5 32 35 35 (196000)
I0905 18:39:26.671128 31924 net.cpp:165] Memory required for data: 1346896240
I0905 18:39:26.671131 31924 layer_factory.hpp:77] Creating layer inception_resnet_v2_a10_3x3
I0905 18:39:26.671141 31924 net.cpp:100] Creating Layer inception_resnet_v2_a10_3x3
I0905 18:39:26.671146 31924 net.cpp:434] inception_resnet_v2_a10_3x3 <- inception_resnet_v2_a10_3x3_reduce
I0905 18:39:26.671154 31924 net.cpp:408] inception_resnet_v2_a10_3x3 -> inception_resnet_v2_a10_3x3
I0905 18:39:26.672521 31924 net.cpp:150] Setting up inception_resnet_v2_a10_3x3
I0905 18:39:26.672535 31924 net.cpp:157] Top shape: 5 32 35 35 (196000)
I0905 18:39:26.672540 31924 net.cpp:165] Memory required for data: 1347680240
I0905 18:39:26.672546 31924 layer_factory.hpp:77] Creating layer inception_resnet_v2_a10_3x3_bn
I0905 18:39:26.672555 31924 net.cpp:100] Creating Layer inception_resnet_v2_a10_3x3_bn
I0905 18:39:26.672560 31924 net.cpp:434] inception_resnet_v2_a10_3x3_bn <- inception_resnet_v2_a10_3x3
I0905 18:39:26.672566 31924 net.cpp:395] inception_resnet_v2_a10_3x3_bn -> inception_resnet_v2_a10_3x3 (in-place)
I0905 18:39:26.672792 31924 net.cpp:150] Setting up inception_resnet_v2_a10_3x3_bn
I0905 18:39:26.672801 31924 net.cpp:157] Top shape: 5 32 35 35 (196000)
I0905 18:39:26.672803 31924 net.cpp:165] Memory required for data: 1348464240
I0905 18:39:26.672812 31924 layer_factory.hpp:77] Creating layer inception_resnet_v2_a10_3x3_scale
I0905 18:39:26.672818 31924 net.cpp:100] Creating Layer inception_resnet_v2_a10_3x3_scale
I0905 18:39:26.672822 31924 net.cpp:434] inception_resnet_v2_a10_3x3_scale <- inception_resnet_v2_a10_3x3
I0905 18:39:26.672827 31924 net.cpp:395] inception_resnet_v2_a10_3x3_scale -> inception_resnet_v2_a10_3x3 (in-place)
I0905 18:39:26.672873 31924 layer_factory.hpp:77] Creating layer inception_resnet_v2_a10_3x3_scale
I0905 18:39:26.673008 31924 net.cpp:150] Setting up inception_resnet_v2_a10_3x3_scale
I0905 18:39:26.673017 31924 net.cpp:157] Top shape: 5 32 35 35 (196000)
I0905 18:39:26.673020 31924 net.cpp:165] Memory required for data: 1349248240
I0905 18:39:26.673027 31924 layer_factory.hpp:77] Creating layer inception_resnet_v2_a10_3x3_relu
I0905 18:39:26.673032 31924 net.cpp:100] Creating Layer inception_resnet_v2_a10_3x3_relu
I0905 18:39:26.673035 31924 net.cpp:434] inception_resnet_v2_a10_3x3_relu <- inception_resnet_v2_a10_3x3
I0905 18:39:26.673040 31924 net.cpp:395] inception_resnet_v2_a10_3x3_relu -> inception_resnet_v2_a10_3x3 (in-place)
I0905 18:39:26.673213 31924 net.cpp:150] Setting up inception_resnet_v2_a10_3x3_relu
I0905 18:39:26.673226 31924 net.cpp:157] Top shape: 5 32 35 35 (196000)
I0905 18:39:26.673235 31924 net.cpp:165] Memory required for data: 1350032240
I0905 18:39:26.673239 31924 layer_factory.hpp:77] Creating layer inception_resnet_v2_a10_3x3_2_reduce
I0905 18:39:26.673251 31924 net.cpp:100] Creating Layer inception_resnet_v2_a10_3x3_2_reduce
I0905 18:39:26.673256 31924 net.cpp:434] inception_resnet_v2_a10_3x3_2_reduce <- inception_resnet_v2_a9_residual_eltwise_inception_resnet_v2_a9_residual_eltwise_relu_0_split_2
I0905 18:39:26.673264 31924 net.cpp:408] inception_resnet_v2_a10_3x3_2_reduce -> inception_resnet_v2_a10_3x3_2_reduce
I0905 18:39:26.674391 31924 net.cpp:150] Setting up inception_resnet_v2_a10_3x3_2_reduce
I0905 18:39:26.674406 31924 net.cpp:157] Top shape: 5 32 35 35 (196000)
I0905 18:39:26.674409 31924 net.cpp:165] Memory required for data: 1350816240
I0905 18:39:26.674415 31924 layer_factory.hpp:77] Creating layer inception_resnet_v2_a10_3x3_2_reduce_bn
I0905 18:39:26.674424 31924 net.cpp:100] Creating Layer inception_resnet_v2_a10_3x3_2_reduce_bn
I0905 18:39:26.674429 31924 net.cpp:434] inception_resnet_v2_a10_3x3_2_reduce_bn <- inception_resnet_v2_a10_3x3_2_reduce
I0905 18:39:26.674435 31924 net.cpp:395] inception_resnet_v2_a10_3x3_2_reduce_bn -> inception_resnet_v2_a10_3x3_2_reduce (in-place)
I0905 18:39:26.674654 31924 net.cpp:150] Setting up inception_resnet_v2_a10_3x3_2_reduce_bn
I0905 18:39:26.674660 31924 net.cpp:157] Top shape: 5 32 35 35 (196000)
I0905 18:39:26.674664 31924 net.cpp:165] Memory required for data: 1351600240
I0905 18:39:26.674671 31924 layer_factory.hpp:77] Creating layer inception_resnet_v2_a10_3x3_2_reduce_scale
I0905 18:39:26.674679 31924 net.cpp:100] Creating Layer inception_resnet_v2_a10_3x3_2_reduce_scale
I0905 18:39:26.674684 31924 net.cpp:434] inception_resnet_v2_a10_3x3_2_reduce_scale <- inception_resnet_v2_a10_3x3_2_reduce
I0905 18:39:26.674690 31924 net.cpp:395] inception_resnet_v2_a10_3x3_2_reduce_scale -> inception_resnet_v2_a10_3x3_2_reduce (in-place)
I0905 18:39:26.674731 31924 layer_factory.hpp:77] Creating layer inception_resnet_v2_a10_3x3_2_reduce_scale
I0905 18:39:26.674862 31924 net.cpp:150] Setting up inception_resnet_v2_a10_3x3_2_reduce_scale
I0905 18:39:26.674870 31924 net.cpp:157] Top shape: 5 32 35 35 (196000)
I0905 18:39:26.674872 31924 net.cpp:165] Memory required for data: 1352384240
I0905 18:39:26.674878 31924 layer_factory.hpp:77] Creating layer inception_resnet_v2_a10_3x3_2_reduce_relu
I0905 18:39:26.674883 31924 net.cpp:100] Creating Layer inception_resnet_v2_a10_3x3_2_reduce_relu
I0905 18:39:26.674887 31924 net.cpp:434] inception_resnet_v2_a10_3x3_2_reduce_relu <- inception_resnet_v2_a10_3x3_2_reduce
I0905 18:39:26.674897 31924 net.cpp:395] inception_resnet_v2_a10_3x3_2_reduce_relu -> inception_resnet_v2_a10_3x3_2_reduce (in-place)
I0905 18:39:26.675354 31924 net.cpp:150] Setting up inception_resnet_v2_a10_3x3_2_reduce_relu
I0905 18:39:26.675369 31924 net.cpp:157] Top shape: 5 32 35 35 (196000)
I0905 18:39:26.675374 31924 net.cpp:165] Memory required for data: 1353168240
I0905 18:39:26.675377 31924 layer_factory.hpp:77] Creating layer inception_resnet_v2_a10_3x3_2
I0905 18:39:26.675389 31924 net.cpp:100] Creating Layer inception_resnet_v2_a10_3x3_2
I0905 18:39:26.675393 31924 net.cpp:434] inception_resnet_v2_a10_3x3_2 <- inception_resnet_v2_a10_3x3_2_reduce
I0905 18:39:26.675400 31924 net.cpp:408] inception_resnet_v2_a10_3x3_2 -> inception_resnet_v2_a10_3x3_2
I0905 18:39:26.676532 31924 net.cpp:150] Setting up inception_resnet_v2_a10_3x3_2
I0905 18:39:26.676547 31924 net.cpp:157] Top shape: 5 48 35 35 (294000)
I0905 18:39:26.676551 31924 net.cpp:165] Memory required for data: 1354344240
I0905 18:39:26.676558 31924 layer_factory.hpp:77] Creating layer inception_resnet_v2_a10_3x3_2_bn
I0905 18:39:26.676565 31924 net.cpp:100] Creating Layer inception_resnet_v2_a10_3x3_2_bn
I0905 18:39:26.676570 31924 net.cpp:434] inception_resnet_v2_a10_3x3_2_bn <- inception_resnet_v2_a10_3x3_2
I0905 18:39:26.676578 31924 net.cpp:395] inception_resnet_v2_a10_3x3_2_bn -> inception_resnet_v2_a10_3x3_2 (in-place)
I0905 18:39:26.676811 31924 net.cpp:150] Setting up inception_resnet_v2_a10_3x3_2_bn
I0905 18:39:26.676820 31924 net.cpp:157] Top shape: 5 48 35 35 (294000)
I0905 18:39:26.676822 31924 net.cpp:165] Memory required for data: 1355520240
I0905 18:39:26.676831 31924 layer_factory.hpp:77] Creating layer inception_resnet_v2_a10_3x3_2_scale
I0905 18:39:26.676837 31924 net.cpp:100] Creating Layer inception_resnet_v2_a10_3x3_2_scale
I0905 18:39:26.676841 31924 net.cpp:434] inception_resnet_v2_a10_3x3_2_scale <- inception_resnet_v2_a10_3x3_2
I0905 18:39:26.676847 31924 net.cpp:395] inception_resnet_v2_a10_3x3_2_scale -> inception_resnet_v2_a10_3x3_2 (in-place)
I0905 18:39:26.676890 31924 layer_factory.hpp:77] Creating layer inception_resnet_v2_a10_3x3_2_scale
I0905 18:39:26.677019 31924 net.cpp:150] Setting up inception_resnet_v2_a10_3x3_2_scale
I0905 18:39:26.677026 31924 net.cpp:157] Top shape: 5 48 35 35 (294000)
I0905 18:39:26.677031 31924 net.cpp:165] Memory required for data: 1356696240
I0905 18:39:26.677036 31924 layer_factory.hpp:77] Creating layer inception_resnet_v2_a10_3x3_2_relu
I0905 18:39:26.677042 31924 net.cpp:100] Creating Layer inception_resnet_v2_a10_3x3_2_relu
I0905 18:39:26.677045 31924 net.cpp:434] inception_resnet_v2_a10_3x3_2_relu <- inception_resnet_v2_a10_3x3_2
I0905 18:39:26.677052 31924 net.cpp:395] inception_resnet_v2_a10_3x3_2_relu -> inception_resnet_v2_a10_3x3_2 (in-place)
I0905 18:39:26.677222 31924 net.cpp:150] Setting up inception_resnet_v2_a10_3x3_2_relu
I0905 18:39:26.677230 31924 net.cpp:157] Top shape: 5 48 35 35 (294000)
I0905 18:39:26.677234 31924 net.cpp:165] Memory required for data: 1357872240
I0905 18:39:26.677238 31924 layer_factory.hpp:77] Creating layer inception_resnet_v2_a10_3x3_3
I0905 18:39:26.677250 31924 net.cpp:100] Creating Layer inception_resnet_v2_a10_3x3_3
I0905 18:39:26.677255 31924 net.cpp:434] inception_resnet_v2_a10_3x3_3 <- inception_resnet_v2_a10_3x3_2
I0905 18:39:26.677261 31924 net.cpp:408] inception_resnet_v2_a10_3x3_3 -> inception_resnet_v2_a10_3x3_3
I0905 18:39:26.678475 31924 net.cpp:150] Setting up inception_resnet_v2_a10_3x3_3
I0905 18:39:26.678489 31924 net.cpp:157] Top shape: 5 64 35 35 (392000)
I0905 18:39:26.678493 31924 net.cpp:165] Memory required for data: 1359440240
I0905 18:39:26.678499 31924 layer_factory.hpp:77] Creating layer inception_resnet_v2_a10_3x3_3_bn
I0905 18:39:26.678508 31924 net.cpp:100] Creating Layer inception_resnet_v2_a10_3x3_3_bn
I0905 18:39:26.678514 31924 net.cpp:434] inception_resnet_v2_a10_3x3_3_bn <- inception_resnet_v2_a10_3x3_3
I0905 18:39:26.678520 31924 net.cpp:395] inception_resnet_v2_a10_3x3_3_bn -> inception_resnet_v2_a10_3x3_3 (in-place)
I0905 18:39:26.678741 31924 net.cpp:150] Setting up inception_resnet_v2_a10_3x3_3_bn
I0905 18:39:26.678748 31924 net.cpp:157] Top shape: 5 64 35 35 (392000)
I0905 18:39:26.678752 31924 net.cpp:165] Memory required for data: 1361008240
I0905 18:39:26.678760 31924 layer_factory.hpp:77] Creating layer inception_resnet_v2_a10_3x3_3_scale
I0905 18:39:26.678767 31924 net.cpp:100] Creating Layer inception_resnet_v2_a10_3x3_3_scale
I0905 18:39:26.678771 31924 net.cpp:434] inception_resnet_v2_a10_3x3_3_scale <- inception_resnet_v2_a10_3x3_3
I0905 18:39:26.678776 31924 net.cpp:395] inception_resnet_v2_a10_3x3_3_scale -> inception_resnet_v2_a10_3x3_3 (in-place)
I0905 18:39:26.678822 31924 layer_factory.hpp:77] Creating layer inception_resnet_v2_a10_3x3_3_scale
I0905 18:39:26.678953 31924 net.cpp:150] Setting up inception_resnet_v2_a10_3x3_3_scale
I0905 18:39:26.678961 31924 net.cpp:157] Top shape: 5 64 35 35 (392000)
I0905 18:39:26.678964 31924 net.cpp:165] Memory required for data: 1362576240
I0905 18:39:26.678969 31924 layer_factory.hpp:77] Creating layer inception_resnet_v2_a10_3x3_3_relu
I0905 18:39:26.678977 31924 net.cpp:100] Creating Layer inception_resnet_v2_a10_3x3_3_relu
I0905 18:39:26.678982 31924 net.cpp:434] inception_resnet_v2_a10_3x3_3_relu <- inception_resnet_v2_a10_3x3_3
I0905 18:39:26.678988 31924 net.cpp:395] inception_resnet_v2_a10_3x3_3_relu -> inception_resnet_v2_a10_3x3_3 (in-place)
I0905 18:39:26.679165 31924 net.cpp:150] Setting up inception_resnet_v2_a10_3x3_3_relu
I0905 18:39:26.679173 31924 net.cpp:157] Top shape: 5 64 35 35 (392000)
I0905 18:39:26.679177 31924 net.cpp:165] Memory required for data: 1364144240
I0905 18:39:26.679181 31924 layer_factory.hpp:77] Creating layer inception_resnet_v2_a10_concat
I0905 18:39:26.679188 31924 net.cpp:100] Creating Layer inception_resnet_v2_a10_concat
I0905 18:39:26.679190 31924 net.cpp:434] inception_resnet_v2_a10_concat <- inception_resnet_v2_a10_1x1
I0905 18:39:26.679195 31924 net.cpp:434] inception_resnet_v2_a10_concat <- inception_resnet_v2_a10_3x3
I0905 18:39:26.679199 31924 net.cpp:434] inception_resnet_v2_a10_concat <- inception_resnet_v2_a10_3x3_3
I0905 18:39:26.679206 31924 net.cpp:408] inception_resnet_v2_a10_concat -> inception_resnet_v2_a10_concat
I0905 18:39:26.679235 31924 net.cpp:150] Setting up inception_resnet_v2_a10_concat
I0905 18:39:26.679241 31924 net.cpp:157] Top shape: 5 128 35 35 (784000)
I0905 18:39:26.679245 31924 net.cpp:165] Memory required for data: 1367280240
I0905 18:39:26.679249 31924 layer_factory.hpp:77] Creating layer inception_resnet_v2_a10_up
I0905 18:39:26.679260 31924 net.cpp:100] Creating Layer inception_resnet_v2_a10_up
I0905 18:39:26.679265 31924 net.cpp:434] inception_resnet_v2_a10_up <- inception_resnet_v2_a10_concat
I0905 18:39:26.679270 31924 net.cpp:408] inception_resnet_v2_a10_up -> inception_resnet_v2_a10_up
I0905 18:39:26.680552 31924 net.cpp:150] Setting up inception_resnet_v2_a10_up
I0905 18:39:26.680565 31924 net.cpp:157] Top shape: 5 320 35 35 (1960000)
I0905 18:39:26.680570 31924 net.cpp:165] Memory required for data: 1375120240
I0905 18:39:26.680577 31924 layer_factory.hpp:77] Creating layer inception_resnet_v2_a10_up_bn
I0905 18:39:26.680588 31924 net.cpp:100] Creating Layer inception_resnet_v2_a10_up_bn
I0905 18:39:26.680591 31924 net.cpp:434] inception_resnet_v2_a10_up_bn <- inception_resnet_v2_a10_up
I0905 18:39:26.680598 31924 net.cpp:395] inception_resnet_v2_a10_up_bn -> inception_resnet_v2_a10_up (in-place)
I0905 18:39:26.680820 31924 net.cpp:150] Setting up inception_resnet_v2_a10_up_bn
I0905 18:39:26.680827 31924 net.cpp:157] Top shape: 5 320 35 35 (1960000)
I0905 18:39:26.680830 31924 net.cpp:165] Memory required for data: 1382960240
I0905 18:39:26.680837 31924 layer_factory.hpp:77] Creating layer inception_resnet_v2_a10_up_scale
I0905 18:39:26.680845 31924 net.cpp:100] Creating Layer inception_resnet_v2_a10_up_scale
I0905 18:39:26.680848 31924 net.cpp:434] inception_resnet_v2_a10_up_scale <- inception_resnet_v2_a10_up
I0905 18:39:26.680853 31924 net.cpp:395] inception_resnet_v2_a10_up_scale -> inception_resnet_v2_a10_up (in-place)
I0905 18:39:26.680901 31924 layer_factory.hpp:77] Creating layer inception_resnet_v2_a10_up_scale
I0905 18:39:26.681035 31924 net.cpp:150] Setting up inception_resnet_v2_a10_up_scale
I0905 18:39:26.681041 31924 net.cpp:157] Top shape: 5 320 35 35 (1960000)
I0905 18:39:26.681044 31924 net.cpp:165] Memory required for data: 1390800240
I0905 18:39:26.681051 31924 layer_factory.hpp:77] Creating layer inception_resnet_v2_a10_residual_eltwise
I0905 18:39:26.681057 31924 net.cpp:100] Creating Layer inception_resnet_v2_a10_residual_eltwise
I0905 18:39:26.681062 31924 net.cpp:434] inception_resnet_v2_a10_residual_eltwise <- inception_resnet_v2_a9_residual_eltwise_inception_resnet_v2_a9_residual_eltwise_relu_0_split_3
I0905 18:39:26.681066 31924 net.cpp:434] inception_resnet_v2_a10_residual_eltwise <- inception_resnet_v2_a10_up
I0905 18:39:26.681071 31924 net.cpp:408] inception_resnet_v2_a10_residual_eltwise -> inception_resnet_v2_a10_residual_eltwise
I0905 18:39:26.681102 31924 net.cpp:150] Setting up inception_resnet_v2_a10_residual_eltwise
I0905 18:39:26.681107 31924 net.cpp:157] Top shape: 5 320 35 35 (1960000)
I0905 18:39:26.681110 31924 net.cpp:165] Memory required for data: 1398640240
I0905 18:39:26.681114 31924 layer_factory.hpp:77] Creating layer inception_resnet_v2_a10_residual_eltwise_relu
I0905 18:39:26.681125 31924 net.cpp:100] Creating Layer inception_resnet_v2_a10_residual_eltwise_relu
I0905 18:39:26.681135 31924 net.cpp:434] inception_resnet_v2_a10_residual_eltwise_relu <- inception_resnet_v2_a10_residual_eltwise
I0905 18:39:26.681141 31924 net.cpp:395] inception_resnet_v2_a10_residual_eltwise_relu -> inception_resnet_v2_a10_residual_eltwise (in-place)
I0905 18:39:26.681308 31924 net.cpp:150] Setting up inception_resnet_v2_a10_residual_eltwise_relu
I0905 18:39:26.681316 31924 net.cpp:157] Top shape: 5 320 35 35 (1960000)
I0905 18:39:26.681320 31924 net.cpp:165] Memory required for data: 1406480240
I0905 18:39:26.681324 31924 layer_factory.hpp:77] Creating layer inception_resnet_v2_a10_residual_eltwise_inception_resnet_v2_a10_residual_eltwise_relu_0_split
I0905 18:39:26.681332 31924 net.cpp:100] Creating Layer inception_resnet_v2_a10_residual_eltwise_inception_resnet_v2_a10_residual_eltwise_relu_0_split
I0905 18:39:26.681336 31924 net.cpp:434] inception_resnet_v2_a10_residual_eltwise_inception_resnet_v2_a10_residual_eltwise_relu_0_split <- inception_resnet_v2_a10_residual_eltwise
I0905 18:39:26.681341 31924 net.cpp:408] inception_resnet_v2_a10_residual_eltwise_inception_resnet_v2_a10_residual_eltwise_relu_0_split -> inception_resnet_v2_a10_residual_eltwise_inception_resnet_v2_a10_residual_eltwise_relu_0_split_0
I0905 18:39:26.681347 31924 net.cpp:408] inception_resnet_v2_a10_residual_eltwise_inception_resnet_v2_a10_residual_eltwise_relu_0_split -> inception_resnet_v2_a10_residual_eltwise_inception_resnet_v2_a10_residual_eltwise_relu_0_split_1
I0905 18:39:26.681354 31924 net.cpp:408] inception_resnet_v2_a10_residual_eltwise_inception_resnet_v2_a10_residual_eltwise_relu_0_split -> inception_resnet_v2_a10_residual_eltwise_inception_resnet_v2_a10_residual_eltwise_relu_0_split_2
I0905 18:39:26.681411 31924 net.cpp:150] Setting up inception_resnet_v2_a10_residual_eltwise_inception_resnet_v2_a10_residual_eltwise_relu_0_split
I0905 18:39:26.681419 31924 net.cpp:157] Top shape: 5 320 35 35 (1960000)
I0905 18:39:26.681423 31924 net.cpp:157] Top shape: 5 320 35 35 (1960000)
I0905 18:39:26.681427 31924 net.cpp:157] Top shape: 5 320 35 35 (1960000)
I0905 18:39:26.681430 31924 net.cpp:165] Memory required for data: 1430000240
I0905 18:39:26.681434 31924 layer_factory.hpp:77] Creating layer reduction_a_3x3
I0905 18:39:26.681445 31924 net.cpp:100] Creating Layer reduction_a_3x3
I0905 18:39:26.681449 31924 net.cpp:434] reduction_a_3x3 <- inception_resnet_v2_a10_residual_eltwise_inception_resnet_v2_a10_residual_eltwise_relu_0_split_0
I0905 18:39:26.681457 31924 net.cpp:408] reduction_a_3x3 -> reduction_a_3x3
I0905 18:39:26.689729 31924 net.cpp:150] Setting up reduction_a_3x3
I0905 18:39:26.689744 31924 net.cpp:157] Top shape: 5 384 17 17 (554880)
I0905 18:39:26.689749 31924 net.cpp:165] Memory required for data: 1432219760
I0905 18:39:26.689757 31924 layer_factory.hpp:77] Creating layer reduction_a_3x3_bn
I0905 18:39:26.689765 31924 net.cpp:100] Creating Layer reduction_a_3x3_bn
I0905 18:39:26.689770 31924 net.cpp:434] reduction_a_3x3_bn <- reduction_a_3x3
I0905 18:39:26.689779 31924 net.cpp:395] reduction_a_3x3_bn -> reduction_a_3x3 (in-place)
I0905 18:39:26.689995 31924 net.cpp:150] Setting up reduction_a_3x3_bn
I0905 18:39:26.690001 31924 net.cpp:157] Top shape: 5 384 17 17 (554880)
I0905 18:39:26.690004 31924 net.cpp:165] Memory required for data: 1434439280
I0905 18:39:26.690012 31924 layer_factory.hpp:77] Creating layer reduction_a_3x3_scale
I0905 18:39:26.690019 31924 net.cpp:100] Creating Layer reduction_a_3x3_scale
I0905 18:39:26.690023 31924 net.cpp:434] reduction_a_3x3_scale <- reduction_a_3x3
I0905 18:39:26.690029 31924 net.cpp:395] reduction_a_3x3_scale -> reduction_a_3x3 (in-place)
I0905 18:39:26.690075 31924 layer_factory.hpp:77] Creating layer reduction_a_3x3_scale
I0905 18:39:26.690196 31924 net.cpp:150] Setting up reduction_a_3x3_scale
I0905 18:39:26.690204 31924 net.cpp:157] Top shape: 5 384 17 17 (554880)
I0905 18:39:26.690207 31924 net.cpp:165] Memory required for data: 1436658800
I0905 18:39:26.690217 31924 layer_factory.hpp:77] Creating layer reduction_a_3x3_relu
I0905 18:39:26.690228 31924 net.cpp:100] Creating Layer reduction_a_3x3_relu
I0905 18:39:26.690233 31924 net.cpp:434] reduction_a_3x3_relu <- reduction_a_3x3
I0905 18:39:26.690237 31924 net.cpp:395] reduction_a_3x3_relu -> reduction_a_3x3 (in-place)
I0905 18:39:26.690415 31924 net.cpp:150] Setting up reduction_a_3x3_relu
I0905 18:39:26.690428 31924 net.cpp:157] Top shape: 5 384 17 17 (554880)
I0905 18:39:26.690431 31924 net.cpp:165] Memory required for data: 1438878320
I0905 18:39:26.690435 31924 layer_factory.hpp:77] Creating layer reduction_a_3x3_2_reduce
I0905 18:39:26.690445 31924 net.cpp:100] Creating Layer reduction_a_3x3_2_reduce
I0905 18:39:26.690450 31924 net.cpp:434] reduction_a_3x3_2_reduce <- inception_resnet_v2_a10_residual_eltwise_inception_resnet_v2_a10_residual_eltwise_relu_0_split_1
I0905 18:39:26.690457 31924 net.cpp:408] reduction_a_3x3_2_reduce -> reduction_a_3x3_2_reduce
I0905 18:39:26.691942 31924 net.cpp:150] Setting up reduction_a_3x3_2_reduce
I0905 18:39:26.691956 31924 net.cpp:157] Top shape: 5 256 35 35 (1568000)
I0905 18:39:26.691961 31924 net.cpp:165] Memory required for data: 1445150320
I0905 18:39:26.691967 31924 layer_factory.hpp:77] Creating layer reduction_a_3x3_2_reduce_bn
I0905 18:39:26.691977 31924 net.cpp:100] Creating Layer reduction_a_3x3_2_reduce_bn
I0905 18:39:26.691982 31924 net.cpp:434] reduction_a_3x3_2_reduce_bn <- reduction_a_3x3_2_reduce
I0905 18:39:26.691988 31924 net.cpp:395] reduction_a_3x3_2_reduce_bn -> reduction_a_3x3_2_reduce (in-place)
I0905 18:39:26.692203 31924 net.cpp:150] Setting up reduction_a_3x3_2_reduce_bn
I0905 18:39:26.692210 31924 net.cpp:157] Top shape: 5 256 35 35 (1568000)
I0905 18:39:26.692214 31924 net.cpp:165] Memory required for data: 1451422320
I0905 18:39:26.692221 31924 layer_factory.hpp:77] Creating layer reduction_a_3x3_2_reduce_scale
I0905 18:39:26.692229 31924 net.cpp:100] Creating Layer reduction_a_3x3_2_reduce_scale
I0905 18:39:26.692231 31924 net.cpp:434] reduction_a_3x3_2_reduce_scale <- reduction_a_3x3_2_reduce
I0905 18:39:26.692236 31924 net.cpp:395] reduction_a_3x3_2_reduce_scale -> reduction_a_3x3_2_reduce (in-place)
I0905 18:39:26.692281 31924 layer_factory.hpp:77] Creating layer reduction_a_3x3_2_reduce_scale
I0905 18:39:26.692404 31924 net.cpp:150] Setting up reduction_a_3x3_2_reduce_scale
I0905 18:39:26.692410 31924 net.cpp:157] Top shape: 5 256 35 35 (1568000)
I0905 18:39:26.692414 31924 net.cpp:165] Memory required for data: 1457694320
I0905 18:39:26.692420 31924 layer_factory.hpp:77] Creating layer reduction_a_3x3_2_reduce_relu
I0905 18:39:26.692427 31924 net.cpp:100] Creating Layer reduction_a_3x3_2_reduce_relu
I0905 18:39:26.692431 31924 net.cpp:434] reduction_a_3x3_2_reduce_relu <- reduction_a_3x3_2_reduce
I0905 18:39:26.692435 31924 net.cpp:395] reduction_a_3x3_2_reduce_relu -> reduction_a_3x3_2_reduce (in-place)
I0905 18:39:26.692603 31924 net.cpp:150] Setting up reduction_a_3x3_2_reduce_relu
I0905 18:39:26.692611 31924 net.cpp:157] Top shape: 5 256 35 35 (1568000)
I0905 18:39:26.692615 31924 net.cpp:165] Memory required for data: 1463966320
I0905 18:39:26.692620 31924 layer_factory.hpp:77] Creating layer reduction_a_3x3_2
I0905 18:39:26.692629 31924 net.cpp:100] Creating Layer reduction_a_3x3_2
I0905 18:39:26.692633 31924 net.cpp:434] reduction_a_3x3_2 <- reduction_a_3x3_2_reduce
I0905 18:39:26.692644 31924 net.cpp:408] reduction_a_3x3_2 -> reduction_a_3x3_2
I0905 18:39:26.697934 31924 net.cpp:150] Setting up reduction_a_3x3_2
I0905 18:39:26.697950 31924 net.cpp:157] Top shape: 5 256 35 35 (1568000)
I0905 18:39:26.697954 31924 net.cpp:165] Memory required for data: 1470238320
I0905 18:39:26.697962 31924 layer_factory.hpp:77] Creating layer reduction_a_3x3_2_bn
I0905 18:39:26.697971 31924 net.cpp:100] Creating Layer reduction_a_3x3_2_bn
I0905 18:39:26.697976 31924 net.cpp:434] reduction_a_3x3_2_bn <- reduction_a_3x3_2
I0905 18:39:26.697983 31924 net.cpp:395] reduction_a_3x3_2_bn -> reduction_a_3x3_2 (in-place)
I0905 18:39:26.698204 31924 net.cpp:150] Setting up reduction_a_3x3_2_bn
I0905 18:39:26.698218 31924 net.cpp:157] Top shape: 5 256 35 35 (1568000)
I0905 18:39:26.698227 31924 net.cpp:165] Memory required for data: 1476510320
I0905 18:39:26.698235 31924 layer_factory.hpp:77] Creating layer reduction_a_3x3_2_scale
I0905 18:39:26.698246 31924 net.cpp:100] Creating Layer reduction_a_3x3_2_scale
I0905 18:39:26.698249 31924 net.cpp:434] reduction_a_3x3_2_scale <- reduction_a_3x3_2
I0905 18:39:26.698254 31924 net.cpp:395] reduction_a_3x3_2_scale -> reduction_a_3x3_2 (in-place)
I0905 18:39:26.698302 31924 layer_factory.hpp:77] Creating layer reduction_a_3x3_2_scale
I0905 18:39:26.698437 31924 net.cpp:150] Setting up reduction_a_3x3_2_scale
I0905 18:39:26.698446 31924 net.cpp:157] Top shape: 5 256 35 35 (1568000)
I0905 18:39:26.698449 31924 net.cpp:165] Memory required for data: 1482782320
I0905 18:39:26.698454 31924 layer_factory.hpp:77] Creating layer reduction_a_3x3_2_relu
I0905 18:39:26.698462 31924 net.cpp:100] Creating Layer reduction_a_3x3_2_relu
I0905 18:39:26.698467 31924 net.cpp:434] reduction_a_3x3_2_relu <- reduction_a_3x3_2
I0905 18:39:26.698470 31924 net.cpp:395] reduction_a_3x3_2_relu -> reduction_a_3x3_2 (in-place)
I0905 18:39:26.698926 31924 net.cpp:150] Setting up reduction_a_3x3_2_relu
I0905 18:39:26.698940 31924 net.cpp:157] Top shape: 5 256 35 35 (1568000)
I0905 18:39:26.698943 31924 net.cpp:165] Memory required for data: 1489054320
I0905 18:39:26.698947 31924 layer_factory.hpp:77] Creating layer reduction_a_3x3_3
I0905 18:39:26.698959 31924 net.cpp:100] Creating Layer reduction_a_3x3_3
I0905 18:39:26.698964 31924 net.cpp:434] reduction_a_3x3_3 <- reduction_a_3x3_2
I0905 18:39:26.698972 31924 net.cpp:408] reduction_a_3x3_3 -> reduction_a_3x3_3
I0905 18:39:26.705857 31924 net.cpp:150] Setting up reduction_a_3x3_3
I0905 18:39:26.705873 31924 net.cpp:157] Top shape: 5 384 17 17 (554880)
I0905 18:39:26.705878 31924 net.cpp:165] Memory required for data: 1491273840
I0905 18:39:26.705884 31924 layer_factory.hpp:77] Creating layer reduction_a_3x3_3_bn
I0905 18:39:26.705893 31924 net.cpp:100] Creating Layer reduction_a_3x3_3_bn
I0905 18:39:26.705898 31924 net.cpp:434] reduction_a_3x3_3_bn <- reduction_a_3x3_3
I0905 18:39:26.705905 31924 net.cpp:395] reduction_a_3x3_3_bn -> reduction_a_3x3_3 (in-place)
I0905 18:39:26.706120 31924 net.cpp:150] Setting up reduction_a_3x3_3_bn
I0905 18:39:26.706127 31924 net.cpp:157] Top shape: 5 384 17 17 (554880)
I0905 18:39:26.706131 31924 net.cpp:165] Memory required for data: 1493493360
I0905 18:39:26.706140 31924 layer_factory.hpp:77] Creating layer reduction_a_3x3_3_scale
I0905 18:39:26.706146 31924 net.cpp:100] Creating Layer reduction_a_3x3_3_scale
I0905 18:39:26.706149 31924 net.cpp:434] reduction_a_3x3_3_scale <- reduction_a_3x3_3
I0905 18:39:26.706156 31924 net.cpp:395] reduction_a_3x3_3_scale -> reduction_a_3x3_3 (in-place)
I0905 18:39:26.706202 31924 layer_factory.hpp:77] Creating layer reduction_a_3x3_3_scale
I0905 18:39:26.706327 31924 net.cpp:150] Setting up reduction_a_3x3_3_scale
I0905 18:39:26.706334 31924 net.cpp:157] Top shape: 5 384 17 17 (554880)
I0905 18:39:26.706337 31924 net.cpp:165] Memory required for data: 1495712880
I0905 18:39:26.706343 31924 layer_factory.hpp:77] Creating layer reduction_a_3x3_3_relu
I0905 18:39:26.706351 31924 net.cpp:100] Creating Layer reduction_a_3x3_3_relu
I0905 18:39:26.706353 31924 net.cpp:434] reduction_a_3x3_3_relu <- reduction_a_3x3_3
I0905 18:39:26.706358 31924 net.cpp:395] reduction_a_3x3_3_relu -> reduction_a_3x3_3 (in-place)
I0905 18:39:26.706537 31924 net.cpp:150] Setting up reduction_a_3x3_3_relu
I0905 18:39:26.706547 31924 net.cpp:157] Top shape: 5 384 17 17 (554880)
I0905 18:39:26.706550 31924 net.cpp:165] Memory required for data: 1497932400
I0905 18:39:26.706554 31924 layer_factory.hpp:77] Creating layer reduction_a_pool
I0905 18:39:26.706562 31924 net.cpp:100] Creating Layer reduction_a_pool
I0905 18:39:26.706565 31924 net.cpp:434] reduction_a_pool <- inception_resnet_v2_a10_residual_eltwise_inception_resnet_v2_a10_residual_eltwise_relu_0_split_2
I0905 18:39:26.706578 31924 net.cpp:408] reduction_a_pool -> reduction_a_pool
I0905 18:39:26.706634 31924 net.cpp:150] Setting up reduction_a_pool
I0905 18:39:26.706640 31924 net.cpp:157] Top shape: 5 320 17 17 (462400)
I0905 18:39:26.706643 31924 net.cpp:165] Memory required for data: 1499782000
I0905 18:39:26.706646 31924 layer_factory.hpp:77] Creating layer reduction_a_concat
I0905 18:39:26.706653 31924 net.cpp:100] Creating Layer reduction_a_concat
I0905 18:39:26.706657 31924 net.cpp:434] reduction_a_concat <- reduction_a_3x3
I0905 18:39:26.706662 31924 net.cpp:434] reduction_a_concat <- reduction_a_3x3_3
I0905 18:39:26.706666 31924 net.cpp:434] reduction_a_concat <- reduction_a_pool
I0905 18:39:26.706671 31924 net.cpp:408] reduction_a_concat -> reduction_a_concat
I0905 18:39:26.706698 31924 net.cpp:150] Setting up reduction_a_concat
I0905 18:39:26.706703 31924 net.cpp:157] Top shape: 5 1088 17 17 (1572160)
I0905 18:39:26.706707 31924 net.cpp:165] Memory required for data: 1506070640
I0905 18:39:26.706712 31924 layer_factory.hpp:77] Creating layer reduction_a_concat_reduction_a_concat_0_split
I0905 18:39:26.706717 31924 net.cpp:100] Creating Layer reduction_a_concat_reduction_a_concat_0_split
I0905 18:39:26.706720 31924 net.cpp:434] reduction_a_concat_reduction_a_concat_0_split <- reduction_a_concat
I0905 18:39:26.706727 31924 net.cpp:408] reduction_a_concat_reduction_a_concat_0_split -> reduction_a_concat_reduction_a_concat_0_split_0
I0905 18:39:26.706733 31924 net.cpp:408] reduction_a_concat_reduction_a_concat_0_split -> reduction_a_concat_reduction_a_concat_0_split_1
I0905 18:39:26.706739 31924 net.cpp:408] reduction_a_concat_reduction_a_concat_0_split -> reduction_a_concat_reduction_a_concat_0_split_2
I0905 18:39:26.706792 31924 net.cpp:150] Setting up reduction_a_concat_reduction_a_concat_0_split
I0905 18:39:26.706797 31924 net.cpp:157] Top shape: 5 1088 17 17 (1572160)
I0905 18:39:26.706801 31924 net.cpp:157] Top shape: 5 1088 17 17 (1572160)
I0905 18:39:26.706806 31924 net.cpp:157] Top shape: 5 1088 17 17 (1572160)
I0905 18:39:26.706809 31924 net.cpp:165] Memory required for data: 1524936560
I0905 18:39:26.706812 31924 layer_factory.hpp:77] Creating layer inception_resnet_v2_b1_1x1
I0905 18:39:26.706823 31924 net.cpp:100] Creating Layer inception_resnet_v2_b1_1x1
I0905 18:39:26.706828 31924 net.cpp:434] inception_resnet_v2_b1_1x1 <- reduction_a_concat_reduction_a_concat_0_split_0
I0905 18:39:26.706835 31924 net.cpp:408] inception_resnet_v2_b1_1x1 -> inception_resnet_v2_b1_1x1
I0905 18:39:26.710238 31924 net.cpp:150] Setting up inception_resnet_v2_b1_1x1
I0905 18:39:26.710253 31924 net.cpp:157] Top shape: 5 192 17 17 (277440)
I0905 18:39:26.710258 31924 net.cpp:165] Memory required for data: 1526046320
I0905 18:39:26.710263 31924 layer_factory.hpp:77] Creating layer inception_resnet_v2_b1_1x1_bn
I0905 18:39:26.710273 31924 net.cpp:100] Creating Layer inception_resnet_v2_b1_1x1_bn
I0905 18:39:26.710278 31924 net.cpp:434] inception_resnet_v2_b1_1x1_bn <- inception_resnet_v2_b1_1x1
I0905 18:39:26.710285 31924 net.cpp:395] inception_resnet_v2_b1_1x1_bn -> inception_resnet_v2_b1_1x1 (in-place)
I0905 18:39:26.710518 31924 net.cpp:150] Setting up inception_resnet_v2_b1_1x1_bn
I0905 18:39:26.710526 31924 net.cpp:157] Top shape: 5 192 17 17 (277440)
I0905 18:39:26.710530 31924 net.cpp:165] Memory required for data: 1527156080
I0905 18:39:26.710537 31924 layer_factory.hpp:77] Creating layer inception_resnet_v2_b1_1x1_scale
I0905 18:39:26.710546 31924 net.cpp:100] Creating Layer inception_resnet_v2_b1_1x1_scale
I0905 18:39:26.710549 31924 net.cpp:434] inception_resnet_v2_b1_1x1_scale <- inception_resnet_v2_b1_1x1
I0905 18:39:26.710554 31924 net.cpp:395] inception_resnet_v2_b1_1x1_scale -> inception_resnet_v2_b1_1x1 (in-place)
I0905 18:39:26.710598 31924 layer_factory.hpp:77] Creating layer inception_resnet_v2_b1_1x1_scale
I0905 18:39:26.710731 31924 net.cpp:150] Setting up inception_resnet_v2_b1_1x1_scale
I0905 18:39:26.710736 31924 net.cpp:157] Top shape: 5 192 17 17 (277440)
I0905 18:39:26.710741 31924 net.cpp:165] Memory required for data: 1528265840
I0905 18:39:26.710752 31924 layer_factory.hpp:77] Creating layer inception_resnet_v2_b1_1x1_relu
I0905 18:39:26.710764 31924 net.cpp:100] Creating Layer inception_resnet_v2_b1_1x1_relu
I0905 18:39:26.710768 31924 net.cpp:434] inception_resnet_v2_b1_1x1_relu <- inception_resnet_v2_b1_1x1
I0905 18:39:26.710774 31924 net.cpp:395] inception_resnet_v2_b1_1x1_relu -> inception_resnet_v2_b1_1x1 (in-place)
I0905 18:39:26.710940 31924 net.cpp:150] Setting up inception_resnet_v2_b1_1x1_relu
I0905 18:39:26.710948 31924 net.cpp:157] Top shape: 5 192 17 17 (277440)
I0905 18:39:26.710952 31924 net.cpp:165] Memory required for data: 1529375600
I0905 18:39:26.710957 31924 layer_factory.hpp:77] Creating layer inception_resnet_v2_b1_1x7_reduce
I0905 18:39:26.710966 31924 net.cpp:100] Creating Layer inception_resnet_v2_b1_1x7_reduce
I0905 18:39:26.710971 31924 net.cpp:434] inception_resnet_v2_b1_1x7_reduce <- reduction_a_concat_reduction_a_concat_0_split_1
I0905 18:39:26.710983 31924 net.cpp:408] inception_resnet_v2_b1_1x7_reduce -> inception_resnet_v2_b1_1x7_reduce
I0905 18:39:26.712728 31924 net.cpp:150] Setting up inception_resnet_v2_b1_1x7_reduce
I0905 18:39:26.712743 31924 net.cpp:157] Top shape: 5 128 17 17 (184960)
I0905 18:39:26.712746 31924 net.cpp:165] Memory required for data: 1530115440
I0905 18:39:26.712754 31924 layer_factory.hpp:77] Creating layer inception_resnet_v2_b1_1x7_reduce_bn
I0905 18:39:26.712762 31924 net.cpp:100] Creating Layer inception_resnet_v2_b1_1x7_reduce_bn
I0905 18:39:26.712767 31924 net.cpp:434] inception_resnet_v2_b1_1x7_reduce_bn <- inception_resnet_v2_b1_1x7_reduce
I0905 18:39:26.712775 31924 net.cpp:395] inception_resnet_v2_b1_1x7_reduce_bn -> inception_resnet_v2_b1_1x7_reduce (in-place)
I0905 18:39:26.712991 31924 net.cpp:150] Setting up inception_resnet_v2_b1_1x7_reduce_bn
I0905 18:39:26.712999 31924 net.cpp:157] Top shape: 5 128 17 17 (184960)
I0905 18:39:26.713002 31924 net.cpp:165] Memory required for data: 1530855280
I0905 18:39:26.713009 31924 layer_factory.hpp:77] Creating layer inception_resnet_v2_b1_1x7_reduce_scale
I0905 18:39:26.713017 31924 net.cpp:100] Creating Layer inception_resnet_v2_b1_1x7_reduce_scale
I0905 18:39:26.713021 31924 net.cpp:434] inception_resnet_v2_b1_1x7_reduce_scale <- inception_resnet_v2_b1_1x7_reduce
I0905 18:39:26.713027 31924 net.cpp:395] inception_resnet_v2_b1_1x7_reduce_scale -> inception_resnet_v2_b1_1x7_reduce (in-place)
I0905 18:39:26.713070 31924 layer_factory.hpp:77] Creating layer inception_resnet_v2_b1_1x7_reduce_scale
I0905 18:39:26.713193 31924 net.cpp:150] Setting up inception_resnet_v2_b1_1x7_reduce_scale
I0905 18:39:26.713201 31924 net.cpp:157] Top shape: 5 128 17 17 (184960)
I0905 18:39:26.713204 31924 net.cpp:165] Memory required for data: 1531595120
I0905 18:39:26.713209 31924 layer_factory.hpp:77] Creating layer inception_resnet_v2_b1_1x7_reduce_relu
I0905 18:39:26.713217 31924 net.cpp:100] Creating Layer inception_resnet_v2_b1_1x7_reduce_relu
I0905 18:39:26.713222 31924 net.cpp:434] inception_resnet_v2_b1_1x7_reduce_relu <- inception_resnet_v2_b1_1x7_reduce
I0905 18:39:26.713225 31924 net.cpp:395] inception_resnet_v2_b1_1x7_reduce_relu -> inception_resnet_v2_b1_1x7_reduce (in-place)
I0905 18:39:26.713390 31924 net.cpp:150] Setting up inception_resnet_v2_b1_1x7_reduce_relu
I0905 18:39:26.713398 31924 net.cpp:157] Top shape: 5 128 17 17 (184960)
I0905 18:39:26.713402 31924 net.cpp:165] Memory required for data: 1532334960
I0905 18:39:26.713407 31924 layer_factory.hpp:77] Creating layer inception_resnet_v2_b1_1x7
I0905 18:39:26.713418 31924 net.cpp:100] Creating Layer inception_resnet_v2_b1_1x7
I0905 18:39:26.713423 31924 net.cpp:434] inception_resnet_v2_b1_1x7 <- inception_resnet_v2_b1_1x7_reduce
I0905 18:39:26.713428 31924 net.cpp:408] inception_resnet_v2_b1_1x7 -> inception_resnet_v2_b1_1x7
I0905 18:39:26.715214 31924 net.cpp:150] Setting up inception_resnet_v2_b1_1x7
I0905 18:39:26.715229 31924 net.cpp:157] Top shape: 5 160 17 17 (231200)
I0905 18:39:26.715234 31924 net.cpp:165] Memory required for data: 1533259760
I0905 18:39:26.715245 31924 layer_factory.hpp:77] Creating layer inception_resnet_v2_b1_1x7_bn
I0905 18:39:26.715260 31924 net.cpp:100] Creating Layer inception_resnet_v2_b1_1x7_bn
I0905 18:39:26.715265 31924 net.cpp:434] inception_resnet_v2_b1_1x7_bn <- inception_resnet_v2_b1_1x7
I0905 18:39:26.715271 31924 net.cpp:395] inception_resnet_v2_b1_1x7_bn -> inception_resnet_v2_b1_1x7 (in-place)
I0905 18:39:26.715495 31924 net.cpp:150] Setting up inception_resnet_v2_b1_1x7_bn
I0905 18:39:26.715503 31924 net.cpp:157] Top shape: 5 160 17 17 (231200)
I0905 18:39:26.715507 31924 net.cpp:165] Memory required for data: 1534184560
I0905 18:39:26.715513 31924 layer_factory.hpp:77] Creating layer inception_resnet_v2_b1_1x7_scale
I0905 18:39:26.715520 31924 net.cpp:100] Creating Layer inception_resnet_v2_b1_1x7_scale
I0905 18:39:26.715524 31924 net.cpp:434] inception_resnet_v2_b1_1x7_scale <- inception_resnet_v2_b1_1x7
I0905 18:39:26.715529 31924 net.cpp:395] inception_resnet_v2_b1_1x7_scale -> inception_resnet_v2_b1_1x7 (in-place)
I0905 18:39:26.715576 31924 layer_factory.hpp:77] Creating layer inception_resnet_v2_b1_1x7_scale
I0905 18:39:26.715708 31924 net.cpp:150] Setting up inception_resnet_v2_b1_1x7_scale
I0905 18:39:26.715714 31924 net.cpp:157] Top shape: 5 160 17 17 (231200)
I0905 18:39:26.715718 31924 net.cpp:165] Memory required for data: 1535109360
I0905 18:39:26.715723 31924 layer_factory.hpp:77] Creating layer inception_resnet_v2_b1_1x7_relu
I0905 18:39:26.715730 31924 net.cpp:100] Creating Layer inception_resnet_v2_b1_1x7_relu
I0905 18:39:26.715734 31924 net.cpp:434] inception_resnet_v2_b1_1x7_relu <- inception_resnet_v2_b1_1x7
I0905 18:39:26.715739 31924 net.cpp:395] inception_resnet_v2_b1_1x7_relu -> inception_resnet_v2_b1_1x7 (in-place)
I0905 18:39:26.715903 31924 net.cpp:150] Setting up inception_resnet_v2_b1_1x7_relu
I0905 18:39:26.715911 31924 net.cpp:157] Top shape: 5 160 17 17 (231200)
I0905 18:39:26.715917 31924 net.cpp:165] Memory required for data: 1536034160
I0905 18:39:26.715920 31924 layer_factory.hpp:77] Creating layer inception_resnet_v2_b1_7x1
I0905 18:39:26.715930 31924 net.cpp:100] Creating Layer inception_resnet_v2_b1_7x1
I0905 18:39:26.715934 31924 net.cpp:434] inception_resnet_v2_b1_7x1 <- inception_resnet_v2_b1_1x7
I0905 18:39:26.715942 31924 net.cpp:408] inception_resnet_v2_b1_7x1 -> inception_resnet_v2_b1_7x1
I0905 18:39:26.719120 31924 net.cpp:150] Setting up inception_resnet_v2_b1_7x1
I0905 18:39:26.719135 31924 net.cpp:157] Top shape: 5 192 17 17 (277440)
I0905 18:39:26.719139 31924 net.cpp:165] Memory required for data: 1537143920
I0905 18:39:26.719146 31924 layer_factory.hpp:77] Creating layer inception_resnet_v2_b1_7x1_bn
I0905 18:39:26.719154 31924 net.cpp:100] Creating Layer inception_resnet_v2_b1_7x1_bn
I0905 18:39:26.719159 31924 net.cpp:434] inception_resnet_v2_b1_7x1_bn <- inception_resnet_v2_b1_7x1
I0905 18:39:26.719164 31924 net.cpp:395] inception_resnet_v2_b1_7x1_bn -> inception_resnet_v2_b1_7x1 (in-place)
I0905 18:39:26.719393 31924 net.cpp:150] Setting up inception_resnet_v2_b1_7x1_bn
I0905 18:39:26.719399 31924 net.cpp:157] Top shape: 5 192 17 17 (277440)
I0905 18:39:26.719403 31924 net.cpp:165] Memory required for data: 1538253680
I0905 18:39:26.719410 31924 layer_factory.hpp:77] Creating layer inception_resnet_v2_b1_7x1_scale
I0905 18:39:26.719418 31924 net.cpp:100] Creating Layer inception_resnet_v2_b1_7x1_scale
I0905 18:39:26.719421 31924 net.cpp:434] inception_resnet_v2_b1_7x1_scale <- inception_resnet_v2_b1_7x1
I0905 18:39:26.719426 31924 net.cpp:395] inception_resnet_v2_b1_7x1_scale -> inception_resnet_v2_b1_7x1 (in-place)
I0905 18:39:26.719472 31924 layer_factory.hpp:77] Creating layer inception_resnet_v2_b1_7x1_scale
…
I0905 18:39:28.925329 31924 net.cpp:150] Setting up inception_resnet_v2_c8_1x1_relu
I0905 18:39:28.925343 31924 net.cpp:157] Top shape: 20 192 8 8 (245760)
I0905 18:39:28.925349 31924 net.cpp:165] Memory required for data: 12476496480
I0905 18:39:28.925356 31924 layer_factory.hpp:77] Creating layer inception_resnet_v2_c8_1x3_reduce
I0905 18:39:28.925371 31924 net.cpp:100] Creating Layer inception_resnet_v2_c8_1x3_reduce
I0905 18:39:28.925379 31924 net.cpp:434] inception_resnet_v2_c8_1x3_reduce <- inception_resnet_v2_c7_residual_eltwise_inception_resnet_v2_c7_residual_eltwise_relu_0_split_1
I0905 18:39:28.925391 31924 net.cpp:408] inception_resnet_v2_c8_1x3_reduce -> inception_resnet_v2_c8_1x3_reduce
I0905 18:39:28.932895 31924 net.cpp:150] Setting up inception_resnet_v2_c8_1x3_reduce
I0905 18:39:28.932915 31924 net.cpp:157] Top shape: 20 192 8 8 (245760)
I0905 18:39:28.932922 31924 net.cpp:165] Memory required for data: 12477479520
I0905 18:39:28.932932 31924 layer_factory.hpp:77] Creating layer inception_resnet_v2_c8_1x3_reduce_bn
I0905 18:39:28.932945 31924 net.cpp:100] Creating Layer inception_resnet_v2_c8_1x3_reduce_bn
I0905 18:39:28.932953 31924 net.cpp:434] inception_resnet_v2_c8_1x3_reduce_bn <- inception_resnet_v2_c8_1x3_reduce
I0905 18:39:28.932965 31924 net.cpp:395] inception_resnet_v2_c8_1x3_reduce_bn -> inception_resnet_v2_c8_1x3_reduce (in-place)
I0905 18:39:28.933281 31924 net.cpp:150] Setting up inception_resnet_v2_c8_1x3_reduce_bn
I0905 18:39:28.933293 31924 net.cpp:157] Top shape: 20 192 8 8 (245760)
I0905 18:39:28.933305 31924 net.cpp:165] Memory required for data: 12478462560
I0905 18:39:28.933320 31924 layer_factory.hpp:77] Creating layer inception_resnet_v2_c8_1x3_reduce_scale
I0905 18:39:28.933329 31924 net.cpp:100] Creating Layer inception_resnet_v2_c8_1x3_reduce_scale
I0905 18:39:28.933336 31924 net.cpp:434] inception_resnet_v2_c8_1x3_reduce_scale <- inception_resnet_v2_c8_1x3_reduce
I0905 18:39:28.933344 31924 net.cpp:395] inception_resnet_v2_c8_1x3_reduce_scale -> inception_resnet_v2_c8_1x3_reduce (in-place)
I0905 18:39:28.933410 31924 layer_factory.hpp:77] Creating layer inception_resnet_v2_c8_1x3_reduce_scale
I0905 18:39:28.933601 31924 net.cpp:150] Setting up inception_resnet_v2_c8_1x3_reduce_scale
I0905 18:39:28.933621 31924 net.cpp:157] Top shape: 20 192 8 8 (245760)
I0905 18:39:28.933629 31924 net.cpp:165] Memory required for data: 12479445600
I0905 18:39:28.933639 31924 layer_factory.hpp:77] Creating layer inception_resnet_v2_c8_1x3_reduce_relu
I0905 18:39:28.933647 31924 net.cpp:100] Creating Layer inception_resnet_v2_c8_1x3_reduce_relu
I0905 18:39:28.933655 31924 net.cpp:434] inception_resnet_v2_c8_1x3_reduce_relu <- inception_resnet_v2_c8_1x3_reduce
I0905 18:39:28.933665 31924 net.cpp:395] inception_resnet_v2_c8_1x3_reduce_relu -> inception_resnet_v2_c8_1x3_reduce (in-place)
I0905 18:39:28.933914 31924 net.cpp:150] Setting up inception_resnet_v2_c8_1x3_reduce_relu
I0905 18:39:28.933928 31924 net.cpp:157] Top shape: 20 192 8 8 (245760)
I0905 18:39:28.933934 31924 net.cpp:165] Memory required for data: 12480428640
I0905 18:39:28.933941 31924 layer_factory.hpp:77] Creating layer inception_resnet_v2_c8_1x3
I0905 18:39:28.933956 31924 net.cpp:100] Creating Layer inception_resnet_v2_c8_1x3
I0905 18:39:28.933964 31924 net.cpp:434] inception_resnet_v2_c8_1x3 <- inception_resnet_v2_c8_1x3_reduce
I0905 18:39:28.933975 31924 net.cpp:408] inception_resnet_v2_c8_1x3 -> inception_resnet_v2_c8_1x3
I0905 18:39:28.937364 31924 net.cpp:150] Setting up inception_resnet_v2_c8_1x3
I0905 18:39:28.937384 31924 net.cpp:157] Top shape: 20 224 8 8 (286720)
I0905 18:39:28.937391 31924 net.cpp:165] Memory required for data: 12481575520
I0905 18:39:28.937402 31924 layer_factory.hpp:77] Creating layer inception_resnet_v2_c8_1x3_bn
I0905 18:39:28.937413 31924 net.cpp:100] Creating Layer inception_resnet_v2_c8_1x3_bn
I0905 18:39:28.937422 31924 net.cpp:434] inception_resnet_v2_c8_1x3_bn <- inception_resnet_v2_c8_1x3
I0905 18:39:28.937429 31924 net.cpp:395] inception_resnet_v2_c8_1x3_bn -> inception_resnet_v2_c8_1x3 (in-place)
I0905 18:39:28.937748 31924 net.cpp:150] Setting up inception_resnet_v2_c8_1x3_bn
I0905 18:39:28.937762 31924 net.cpp:157] Top shape: 20 224 8 8 (286720)
I0905 18:39:28.937767 31924 net.cpp:165] Memory required for data: 12482722400
I0905 18:39:28.937779 31924 layer_factory.hpp:77] Creating layer inception_resnet_v2_c8_1x3_scale
I0905 18:39:28.937789 31924 net.cpp:100] Creating Layer inception_resnet_v2_c8_1x3_scale
I0905 18:39:28.937796 31924 net.cpp:434] inception_resnet_v2_c8_1x3_scale <- inception_resnet_v2_c8_1x3
I0905 18:39:28.937804 31924 net.cpp:395] inception_resnet_v2_c8_1x3_scale -> inception_resnet_v2_c8_1x3 (in-place)
I0905 18:39:28.937873 31924 layer_factory.hpp:77] Creating layer inception_resnet_v2_c8_1x3_scale
I0905 18:39:28.938065 31924 net.cpp:150] Setting up inception_resnet_v2_c8_1x3_scale
I0905 18:39:28.938079 31924 net.cpp:157] Top shape: 20 224 8 8 (286720)
I0905 18:39:28.938086 31924 net.cpp:165] Memory required for data: 12483869280
I0905 18:39:28.938096 31924 layer_factory.hpp:77] Creating layer inception_resnet_v2_c8_1x3_relu
I0905 18:39:28.938104 31924 net.cpp:100] Creating Layer inception_resnet_v2_c8_1x3_relu
I0905 18:39:28.938112 31924 net.cpp:434] inception_resnet_v2_c8_1x3_relu <- inception_resnet_v2_c8_1x3
I0905 18:39:28.938119 31924 net.cpp:395] inception_resnet_v2_c8_1x3_relu -> inception_resnet_v2_c8_1x3 (in-place)
I0905 18:39:28.938369 31924 net.cpp:150] Setting up inception_resnet_v2_c8_1x3_relu
I0905 18:39:28.938391 31924 net.cpp:157] Top shape: 20 224 8 8 (286720)
I0905 18:39:28.938405 31924 net.cpp:165] Memory required for data: 12485016160
I0905 18:39:28.938411 31924 layer_factory.hpp:77] Creating layer inception_resnet_v2_c8_3x1
I0905 18:39:28.938426 31924 net.cpp:100] Creating Layer inception_resnet_v2_c8_3x1
I0905 18:39:28.938434 31924 net.cpp:434] inception_resnet_v2_c8_3x1 <- inception_resnet_v2_c8_1x3
I0905 18:39:28.938446 31924 net.cpp:408] inception_resnet_v2_c8_3x1 -> inception_resnet_v2_c8_3x1
I0905 18:39:28.945390 31924 net.cpp:150] Setting up inception_resnet_v2_c8_3x1
I0905 18:39:28.945410 31924 net.cpp:157] Top shape: 20 256 8 8 (327680)
I0905 18:39:28.945417 31924 net.cpp:165] Memory required for data: 12486326880
I0905 18:39:28.945428 31924 layer_factory.hpp:77] Creating layer inception_resnet_v2_c8_3x1_bn
I0905 18:39:28.945447 31924 net.cpp:100] Creating Layer inception_resnet_v2_c8_3x1_bn
I0905 18:39:28.945456 31924 net.cpp:434] inception_resnet_v2_c8_3x1_bn <- inception_resnet_v2_c8_3x1
I0905 18:39:28.945466 31924 net.cpp:395] inception_resnet_v2_c8_3x1_bn -> inception_resnet_v2_c8_3x1 (in-place)
I0905 18:39:28.945777 31924 net.cpp:150] Setting up inception_resnet_v2_c8_3x1_bn
I0905 18:39:28.945790 31924 net.cpp:157] Top shape: 20 256 8 8 (327680)
I0905 18:39:28.945796 31924 net.cpp:165] Memory required for data: 12487637600
I0905 18:39:28.945808 31924 layer_factory.hpp:77] Creating layer inception_resnet_v2_c8_3x1_scale
I0905 18:39:28.945818 31924 net.cpp:100] Creating Layer inception_resnet_v2_c8_3x1_scale
I0905 18:39:28.945825 31924 net.cpp:434] inception_resnet_v2_c8_3x1_scale <- inception_resnet_v2_c8_3x1
I0905 18:39:28.945833 31924 net.cpp:395] inception_resnet_v2_c8_3x1_scale -> inception_resnet_v2_c8_3x1 (in-place)
I0905 18:39:28.945900 31924 layer_factory.hpp:77] Creating layer inception_resnet_v2_c8_3x1_scale
I0905 18:39:28.946084 31924 net.cpp:150] Setting up inception_resnet_v2_c8_3x1_scale
I0905 18:39:28.946096 31924 net.cpp:157] Top shape: 20 256 8 8 (327680)
I0905 18:39:28.946102 31924 net.cpp:165] Memory required for data: 12488948320
I0905 18:39:28.946111 31924 layer_factory.hpp:77] Creating layer inception_resnet_v2_c8_3x1_relu
I0905 18:39:28.946121 31924 net.cpp:100] Creating Layer inception_resnet_v2_c8_3x1_relu
I0905 18:39:28.946128 31924 net.cpp:434] inception_resnet_v2_c8_3x1_relu <- inception_resnet_v2_c8_3x1
I0905 18:39:28.946137 31924 net.cpp:395] inception_resnet_v2_c8_3x1_relu -> inception_resnet_v2_c8_3x1 (in-place)
I0905 18:39:28.946405 31924 net.cpp:150] Setting up inception_resnet_v2_c8_3x1_relu
I0905 18:39:28.946421 31924 net.cpp:157] Top shape: 20 256 8 8 (327680)
I0905 18:39:28.946427 31924 net.cpp:165] Memory required for data: 12490259040
I0905 18:39:28.946434 31924 layer_factory.hpp:77] Creating layer inception_resnet_v2_c8_concat
I0905 18:39:28.946444 31924 net.cpp:100] Creating Layer inception_resnet_v2_c8_concat
I0905 18:39:28.946452 31924 net.cpp:434] inception_resnet_v2_c8_concat <- inception_resnet_v2_c8_1x1
I0905 18:39:28.946460 31924 net.cpp:434] inception_resnet_v2_c8_concat <- inception_resnet_v2_c8_3x1
I0905 18:39:28.946468 31924 net.cpp:408] inception_resnet_v2_c8_concat -> inception_resnet_v2_c8_concat
I0905 18:39:28.946516 31924 net.cpp:150] Setting up inception_resnet_v2_c8_concat
I0905 18:39:28.946527 31924 net.cpp:157] Top shape: 20 448 8 8 (573440)
I0905 18:39:28.946532 31924 net.cpp:165] Memory required for data: 12492552800
I0905 18:39:28.946539 31924 layer_factory.hpp:77] Creating layer inception_resnet_v2_c8_up
I0905 18:39:28.946553 31924 net.cpp:100] Creating Layer inception_resnet_v2_c8_up
I0905 18:39:28.946562 31924 net.cpp:434] inception_resnet_v2_c8_up <- inception_resnet_v2_c8_concat
I0905 18:39:28.946571 31924 net.cpp:408] inception_resnet_v2_c8_up -> inception_resnet_v2_c8_up
I0905 18:39:28.958926 31924 net.cpp:150] Setting up inception_resnet_v2_c8_up
I0905 18:39:28.958947 31924 net.cpp:157] Top shape: 20 2080 8 8 (2662400)
I0905 18:39:28.958953 31924 net.cpp:165] Memory required for data: 12503202400
I0905 18:39:28.958964 31924 layer_factory.hpp:77] Creating layer inception_resnet_v2_c8_up_bn
I0905 18:39:28.958981 31924 net.cpp:100] Creating Layer inception_resnet_v2_c8_up_bn
I0905 18:39:28.958989 31924 net.cpp:434] inception_resnet_v2_c8_up_bn <- inception_resnet_v2_c8_up
I0905 18:39:28.959002 31924 net.cpp:395] inception_resnet_v2_c8_up_bn -> inception_resnet_v2_c8_up (in-place)
I0905 18:39:28.959352 31924 net.cpp:150] Setting up inception_resnet_v2_c8_up_bn
I0905 18:39:28.959367 31924 net.cpp:157] Top shape: 20 2080 8 8 (2662400)
I0905 18:39:28.959372 31924 net.cpp:165] Memory required for data: 12513852000
I0905 18:39:28.959384 31924 layer_factory.hpp:77] Creating layer inception_resnet_v2_c8_up_scale
I0905 18:39:28.959396 31924 net.cpp:100] Creating Layer inception_resnet_v2_c8_up_scale
I0905 18:39:28.959403 31924 net.cpp:434] inception_resnet_v2_c8_up_scale <- inception_resnet_v2_c8_up
I0905 18:39:28.959420 31924 net.cpp:395] inception_resnet_v2_c8_up_scale -> inception_resnet_v2_c8_up (in-place)
I0905 18:39:28.959503 31924 layer_factory.hpp:77] Creating layer inception_resnet_v2_c8_up_scale
I0905 18:39:28.959722 31924 net.cpp:150] Setting up inception_resnet_v2_c8_up_scale
I0905 18:39:28.959735 31924 net.cpp:157] Top shape: 20 2080 8 8 (2662400)
I0905 18:39:28.959741 31924 net.cpp:165] Memory required for data: 12524501600
I0905 18:39:28.959750 31924 layer_factory.hpp:77] Creating layer inception_resnet_v2_c8_residual_eltwise
I0905 18:39:28.959760 31924 net.cpp:100] Creating Layer inception_resnet_v2_c8_residual_eltwise
I0905 18:39:28.959769 31924 net.cpp:434] inception_resnet_v2_c8_residual_eltwise <- inception_resnet_v2_c7_residual_eltwise_inception_resnet_v2_c7_residual_eltwise_relu_0_split_2
I0905 18:39:28.959775 31924 net.cpp:434] inception_resnet_v2_c8_residual_eltwise <- inception_resnet_v2_c8_up
I0905 18:39:28.959786 31924 net.cpp:408] inception_resnet_v2_c8_residual_eltwise -> inception_resnet_v2_c8_residual_eltwise
I0905 18:39:28.959826 31924 net.cpp:150] Setting up inception_resnet_v2_c8_residual_eltwise
I0905 18:39:28.959837 31924 net.cpp:157] Top shape: 20 2080 8 8 (2662400)
I0905 18:39:28.959842 31924 net.cpp:165] Memory required for data: 12535151200
I0905 18:39:28.959849 31924 layer_factory.hpp:77] Creating layer inception_resnet_v2_c8_residual_eltwise_relu
I0905 18:39:28.959861 31924 net.cpp:100] Creating Layer inception_resnet_v2_c8_residual_eltwise_relu
I0905 18:39:28.959867 31924 net.cpp:434] inception_resnet_v2_c8_residual_eltwise_relu <- inception_resnet_v2_c8_residual_eltwise
I0905 18:39:28.959875 31924 net.cpp:395] inception_resnet_v2_c8_residual_eltwise_relu -> inception_resnet_v2_c8_residual_eltwise (in-place)
I0905 18:39:28.961290 31924 net.cpp:150] Setting up inception_resnet_v2_c8_residual_eltwise_relu
I0905 18:39:28.961311 31924 net.cpp:157] Top shape: 20 2080 8 8 (2662400)
I0905 18:39:28.961318 31924 net.cpp:165] Memory required for data: 12545800800
I0905 18:39:28.961324 31924 layer_factory.hpp:77] Creating layer inception_resnet_v2_c8_residual_eltwise_inception_resnet_v2_c8_residual_eltwise_relu_0_split
I0905 18:39:28.961334 31924 net.cpp:100] Creating Layer inception_resnet_v2_c8_residual_eltwise_inception_resnet_v2_c8_residual_eltwise_relu_0_split
I0905 18:39:28.961343 31924 net.cpp:434] inception_resnet_v2_c8_residual_eltwise_inception_resnet_v2_c8_residual_eltwise_relu_0_split <- inception_resnet_v2_c8_residual_eltwise
I0905 18:39:28.961351 31924 net.cpp:408] inception_resnet_v2_c8_residual_eltwise_inception_resnet_v2_c8_residual_eltwise_relu_0_split -> inception_resnet_v2_c8_residual_eltwise_inception_resnet_v2_c8_residual_eltwise_relu_0_split_0
I0905 18:39:28.961364 31924 net.cpp:408] inception_resnet_v2_c8_residual_eltwise_inception_resnet_v2_c8_residual_eltwise_relu_0_split -> inception_resnet_v2_c8_residual_eltwise_inception_resnet_v2_c8_residual_eltwise_relu_0_split_1
I0905 18:39:28.961375 31924 net.cpp:408] inception_resnet_v2_c8_residual_eltwise_inception_resnet_v2_c8_residual_eltwise_relu_0_split -> inception_resnet_v2_c8_residual_eltwise_inception_resnet_v2_c8_residual_eltwise_relu_0_split_2
I0905 18:39:28.961465 31924 net.cpp:150] Setting up inception_resnet_v2_c8_residual_eltwise_inception_resnet_v2_c8_residual_eltwise_relu_0_split
I0905 18:39:28.961482 31924 net.cpp:157] Top shape: 20 2080 8 8 (2662400)
I0905 18:39:28.961489 31924 net.cpp:157] Top shape: 20 2080 8 8 (2662400)
I0905 18:39:28.961496 31924 net.cpp:157] Top shape: 20 2080 8 8 (2662400)
I0905 18:39:28.961503 31924 net.cpp:165] Memory required for data: 12577749600
I0905 18:39:28.961508 31924 layer_factory.hpp:77] Creating layer inception_resnet_v2_c9_1x1
I0905 18:39:28.961524 31924 net.cpp:100] Creating Layer inception_resnet_v2_c9_1x1
I0905 18:39:28.961532 31924 net.cpp:434] inception_resnet_v2_c9_1x1 <- inception_resnet_v2_c8_residual_eltwise_inception_resnet_v2_c8_residual_eltwise_relu_0_split_0
I0905 18:39:28.961544 31924 net.cpp:408] inception_resnet_v2_c9_1x1 -> inception_resnet_v2_c9_1x1
I0905 18:39:28.967962 31924 net.cpp:150] Setting up inception_resnet_v2_c9_1x1
I0905 18:39:28.967980 31924 net.cpp:157] Top shape: 20 192 8 8 (245760)
I0905 18:39:28.967988 31924 net.cpp:165] Memory required for data: 12578732640
I0905 18:39:28.967998 31924 layer_factory.hpp:77] Creating layer inception_resnet_v2_c9_1x1_bn
I0905 18:39:28.968008 31924 net.cpp:100] Creating Layer inception_resnet_v2_c9_1x1_bn
I0905 18:39:28.968015 31924 net.cpp:434] inception_resnet_v2_c9_1x1_bn <- inception_resnet_v2_c9_1x1
I0905 18:39:28.968025 31924 net.cpp:395] inception_resnet_v2_c9_1x1_bn -> inception_resnet_v2_c9_1x1 (in-place)
I0905 18:39:28.968353 31924 net.cpp:150] Setting up inception_resnet_v2_c9_1x1_bn
I0905 18:39:28.968364 31924 net.cpp:157] Top shape: 20 192 8 8 (245760)
I0905 18:39:28.968370 31924 net.cpp:165] Memory required for data: 12579715680
I0905 18:39:28.968382 31924 layer_factory.hpp:77] Creating layer inception_resnet_v2_c9_1x1_scale
I0905 18:39:28.968391 31924 net.cpp:100] Creating Layer inception_resnet_v2_c9_1x1_scale
I0905 18:39:28.968399 31924 net.cpp:434] inception_resnet_v2_c9_1x1_scale <- inception_resnet_v2_c9_1x1
I0905 18:39:28.968410 31924 net.cpp:395] inception_resnet_v2_c9_1x1_scale -> inception_resnet_v2_c9_1x1 (in-place)
I0905 18:39:28.968472 31924 layer_factory.hpp:77] Creating layer inception_resnet_v2_c9_1x1_scale
I0905 18:39:28.968672 31924 net.cpp:150] Setting up inception_resnet_v2_c9_1x1_scale
I0905 18:39:28.968683 31924 net.cpp:157] Top shape: 20 192 8 8 (245760)
I0905 18:39:28.968689 31924 net.cpp:165] Memory required for data: 12580698720
I0905 18:39:28.968699 31924 layer_factory.hpp:77] Creating layer inception_resnet_v2_c9_1x1_relu
I0905 18:39:28.968708 31924 net.cpp:100] Creating Layer inception_resnet_v2_c9_1x1_relu
I0905 18:39:28.968715 31924 net.cpp:434] inception_resnet_v2_c9_1x1_relu <- inception_resnet_v2_c9_1x1
I0905 18:39:28.968725 31924 net.cpp:395] inception_resnet_v2_c9_1x1_relu -> inception_resnet_v2_c9_1x1 (in-place)
I0905 18:39:28.970145 31924 net.cpp:150] Setting up inception_resnet_v2_c9_1x1_relu
I0905 18:39:28.970163 31924 net.cpp:157] Top shape: 20 192 8 8 (245760)
I0905 18:39:28.970170 31924 net.cpp:165] Memory required for data: 12581681760
I0905 18:39:28.970176 31924 layer_factory.hpp:77] Creating layer inception_resnet_v2_c9_1x3_reduce
I0905 18:39:28.970192 31924 net.cpp:100] Creating Layer inception_resnet_v2_c9_1x3_reduce
I0905 18:39:28.970201 31924 net.cpp:434] inception_resnet_v2_c9_1x3_reduce <- inception_resnet_v2_c8_residual_eltwise_inception_resnet_v2_c8_residual_eltwise_relu_0_split_1
I0905 18:39:28.970213 31924 net.cpp:408] inception_resnet_v2_c9_1x3_reduce -> inception_resnet_v2_c9_1x3_reduce
I0905 18:39:28.977768 31924 net.cpp:150] Setting up inception_resnet_v2_c9_1x3_reduce
I0905 18:39:28.977788 31924 net.cpp:157] Top shape: 20 192 8 8 (245760)
I0905 18:39:28.977795 31924 net.cpp:165] Memory required for data: 12582664800
I0905 18:39:28.977807 31924 layer_factory.hpp:77] Creating layer inception_resnet_v2_c9_1x3_reduce_bn
I0905 18:39:28.977818 31924 net.cpp:100] Creating Layer inception_resnet_v2_c9_1x3_reduce_bn
I0905 18:39:28.977828 31924 net.cpp:434] inception_resnet_v2_c9_1x3_reduce_bn <- inception_resnet_v2_c9_1x3_reduce
I0905 18:39:28.977836 31924 net.cpp:395] inception_resnet_v2_c9_1x3_reduce_bn -> inception_resnet_v2_c9_1x3_reduce (in-place)
I0905 18:39:28.978173 31924 net.cpp:150] Setting up inception_resnet_v2_c9_1x3_reduce_bn
I0905 18:39:28.978184 31924 net.cpp:157] Top shape: 20 192 8 8 (245760)
I0905 18:39:28.978191 31924 net.cpp:165] Memory required for data: 12583647840
I0905 18:39:28.978205 31924 layer_factory.hpp:77] Creating layer inception_resnet_v2_c9_1x3_reduce_scale
I0905 18:39:28.978214 31924 net.cpp:100] Creating Layer inception_resnet_v2_c9_1x3_reduce_scale
I0905 18:39:28.978221 31924 net.cpp:434] inception_resnet_v2_c9_1x3_reduce_scale <- inception_resnet_v2_c9_1x3_reduce
I0905 18:39:28.978230 31924 net.cpp:395] inception_resnet_v2_c9_1x3_reduce_scale -> inception_resnet_v2_c9_1x3_reduce (in-place)
I0905 18:39:28.978307 31924 layer_factory.hpp:77] Creating layer inception_resnet_v2_c9_1x3_reduce_scale
I0905 18:39:28.978512 31924 net.cpp:150] Setting up inception_resnet_v2_c9_1x3_reduce_scale
I0905 18:39:28.978524 31924 net.cpp:157] Top shape: 20 192 8 8 (245760)
I0905 18:39:28.978530 31924 net.cpp:165] Memory required for data: 12584630880
I0905 18:39:28.978540 31924 layer_factory.hpp:77] Creating layer inception_resnet_v2_c9_1x3_reduce_relu
I0905 18:39:28.978549 31924 net.cpp:100] Creating Layer inception_resnet_v2_c9_1x3_reduce_relu
I0905 18:39:28.978556 31924 net.cpp:434] inception_resnet_v2_c9_1x3_reduce_relu <- inception_resnet_v2_c9_1x3_reduce
I0905 18:39:28.978566 31924 net.cpp:395] inception_resnet_v2_c9_1x3_reduce_relu -> inception_resnet_v2_c9_1x3_reduce (in-place)
I0905 18:39:28.978813 31924 net.cpp:150] Setting up inception_resnet_v2_c9_1x3_reduce_relu
I0905 18:39:28.978827 31924 net.cpp:157] Top shape: 20 192 8 8 (245760)
I0905 18:39:28.978833 31924 net.cpp:165] Memory required for data: 12585613920
I0905 18:39:28.978839 31924 layer_factory.hpp:77] Creating layer inception_resnet_v2_c9_1x3
I0905 18:39:28.978855 31924 net.cpp:100] Creating Layer inception_resnet_v2_c9_1x3
I0905 18:39:28.978863 31924 net.cpp:434] inception_resnet_v2_c9_1x3 <- inception_resnet_v2_c9_1x3_reduce
I0905 18:39:28.978875 31924 net.cpp:408] inception_resnet_v2_c9_1x3 -> inception_resnet_v2_c9_1x3
I0905 18:39:28.982240 31924 net.cpp:150] Setting up inception_resnet_v2_c9_1x3
I0905 18:39:28.982260 31924 net.cpp:157] Top shape: 20 224 8 8 (286720)
I0905 18:39:28.982267 31924 net.cpp:165] Memory required for data: 12586760800
I0905 18:39:28.982277 31924 layer_factory.hpp:77] Creating layer inception_resnet_v2_c9_1x3_bn
I0905 18:39:28.982288 31924 net.cpp:100] Creating Layer inception_resnet_v2_c9_1x3_bn
I0905 18:39:28.982296 31924 net.cpp:434] inception_resnet_v2_c9_1x3_bn <- inception_resnet_v2_c9_1x3
I0905 18:39:28.982309 31924 net.cpp:395] inception_resnet_v2_c9_1x3_bn -> inception_resnet_v2_c9_1x3 (in-place)
I0905 18:39:28.982659 31924 net.cpp:150] Setting up inception_resnet_v2_c9_1x3_bn
I0905 18:39:28.982673 31924 net.cpp:157] Top shape: 20 224 8 8 (286720)
I0905 18:39:28.982679 31924 net.cpp:165] Memory required for data: 12587907680
I0905 18:39:28.982692 31924 layer_factory.hpp:77] Creating layer inception_resnet_v2_c9_1x3_scale
I0905 18:39:28.982702 31924 net.cpp:100] Creating Layer inception_resnet_v2_c9_1x3_scale
I0905 18:39:28.982708 31924 net.cpp:434] inception_resnet_v2_c9_1x3_scale <- inception_resnet_v2_c9_1x3
I0905 18:39:28.982719 31924 net.cpp:395] inception_resnet_v2_c9_1x3_scale -> inception_resnet_v2_c9_1x3 (in-place)
I0905 18:39:28.982784 31924 layer_factory.hpp:77] Creating layer inception_resnet_v2_c9_1x3_scale
I0905 18:39:28.982980 31924 net.cpp:150] Setting up inception_resnet_v2_c9_1x3_scale
I0905 18:39:28.982991 31924 net.cpp:157] Top shape: 20 224 8 8 (286720)
I0905 18:39:28.982997 31924 net.cpp:165] Memory required for data: 12589054560
I0905 18:39:28.983006 31924 layer_factory.hpp:77] Creating layer inception_resnet_v2_c9_1x3_relu
I0905 18:39:28.983016 31924 net.cpp:100] Creating Layer inception_resnet_v2_c9_1x3_relu
I0905 18:39:28.983022 31924 net.cpp:434] inception_resnet_v2_c9_1x3_relu <- inception_resnet_v2_c9_1x3
I0905 18:39:28.983032 31924 net.cpp:395] inception_resnet_v2_c9_1x3_relu -> inception_resnet_v2_c9_1x3 (in-place)
I0905 18:39:28.983280 31924 net.cpp:150] Setting up inception_resnet_v2_c9_1x3_relu
I0905 18:39:28.983294 31924 net.cpp:157] Top shape: 20 224 8 8 (286720)
I0905 18:39:28.983300 31924 net.cpp:165] Memory required for data: 12590201440
I0905 18:39:28.983306 31924 layer_factory.hpp:77] Creating layer inception_resnet_v2_c9_3x1
I0905 18:39:28.983321 31924 net.cpp:100] Creating Layer inception_resnet_v2_c9_3x1
I0905 18:39:28.983330 31924 net.cpp:434] inception_resnet_v2_c9_3x1 <- inception_resnet_v2_c9_1x3
I0905 18:39:28.983341 31924 net.cpp:408] inception_resnet_v2_c9_3x1 -> inception_resnet_v2_c9_3x1
I0905 18:39:28.987059 31924 net.cpp:150] Setting up inception_resnet_v2_c9_3x1
I0905 18:39:28.987087 31924 net.cpp:157] Top shape: 20 256 8 8 (327680)
I0905 18:39:28.987093 31924 net.cpp:165] Memory required for data: 12591512160
I0905 18:39:28.987104 31924 layer_factory.hpp:77] Creating layer inception_resnet_v2_c9_3x1_bn
I0905 18:39:28.987114 31924 net.cpp:100] Creating Layer inception_resnet_v2_c9_3x1_bn
I0905 18:39:28.987123 31924 net.cpp:434] inception_resnet_v2_c9_3x1_bn <- inception_resnet_v2_c9_3x1
I0905 18:39:28.987133 31924 net.cpp:395] inception_resnet_v2_c9_3x1_bn -> inception_resnet_v2_c9_3x1 (in-place)
I0905 18:39:28.987460 31924 net.cpp:150] Setting up inception_resnet_v2_c9_3x1_bn
I0905 18:39:28.987473 31924 net.cpp:157] Top shape: 20 256 8 8 (327680)
I0905 18:39:28.987479 31924 net.cpp:165] Memory required for data: 12592822880
I0905 18:39:28.987491 31924 layer_factory.hpp:77] Creating layer inception_resnet_v2_c9_3x1_scale
I0905 18:39:28.987501 31924 net.cpp:100] Creating Layer inception_resnet_v2_c9_3x1_scale
I0905 18:39:28.987509 31924 net.cpp:434] inception_resnet_v2_c9_3x1_scale <- inception_resnet_v2_c9_3x1
I0905 18:39:28.987516 31924 net.cpp:395] inception_resnet_v2_c9_3x1_scale -> inception_resnet_v2_c9_3x1 (in-place)
I0905 18:39:28.987584 31924 layer_factory.hpp:77] Creating layer inception_resnet_v2_c9_3x1_scale
I0905 18:39:28.987768 31924 net.cpp:150] Setting up inception_resnet_v2_c9_3x1_scale
I0905 18:39:28.987781 31924 net.cpp:157] Top shape: 20 256 8 8 (327680)
I0905 18:39:28.987787 31924 net.cpp:165] Memory required for data: 12594133600
I0905 18:39:28.987795 31924 layer_factory.hpp:77] Creating layer inception_resnet_v2_c9_3x1_relu
I0905 18:39:28.987804 31924 net.cpp:100] Creating Layer inception_resnet_v2_c9_3x1_relu
I0905 18:39:28.987812 31924 net.cpp:434] inception_resnet_v2_c9_3x1_relu <- inception_resnet_v2_c9_3x1
I0905 18:39:28.987821 31924 net.cpp:395] inception_resnet_v2_c9_3x1_relu -> inception_resnet_v2_c9_3x1 (in-place)
I0905 18:39:28.988064 31924 net.cpp:150] Setting up inception_resnet_v2_c9_3x1_relu
I0905 18:39:28.988077 31924 net.cpp:157] Top shape: 20 256 8 8 (327680)
I0905 18:39:28.988083 31924 net.cpp:165] Memory required for data: 12595444320
I0905 18:39:28.988090 31924 layer_factory.hpp:77] Creating layer inception_resnet_v2_c9_concat
I0905 18:39:28.988101 31924 net.cpp:100] Creating Layer inception_resnet_v2_c9_concat
I0905 18:39:28.988107 31924 net.cpp:434] inception_resnet_v2_c9_concat <- inception_resnet_v2_c9_1x1
I0905 18:39:28.988114 31924 net.cpp:434] inception_resnet_v2_c9_concat <- inception_resnet_v2_c9_3x1
I0905 18:39:28.988123 31924 net.cpp:408] inception_resnet_v2_c9_concat -> inception_resnet_v2_c9_concat
I0905 18:39:28.988168 31924 net.cpp:150] Setting up inception_resnet_v2_c9_concat
I0905 18:39:28.988181 31924 net.cpp:157] Top shape: 20 448 8 8 (573440)
I0905 18:39:28.988188 31924 net.cpp:165] Memory required for data: 12597738080
I0905 18:39:28.988193 31924 layer_factory.hpp:77] Creating layer inception_resnet_v2_c9_up
I0905 18:39:28.988209 31924 net.cpp:100] Creating Layer inception_resnet_v2_c9_up
I0905 18:39:28.988215 31924 net.cpp:434] inception_resnet_v2_c9_up <- inception_resnet_v2_c9_concat
I0905 18:39:28.988225 31924 net.cpp:408] inception_resnet_v2_c9_up -> inception_resnet_v2_c9_up
I0905 18:39:29.000589 31924 net.cpp:150] Setting up inception_resnet_v2_c9_up
I0905 18:39:29.000614 31924 net.cpp:157] Top shape: 20 2080 8 8 (2662400)
I0905 18:39:29.000622 31924 net.cpp:165] Memory required for data: 12608387680
I0905 18:39:29.000632 31924 layer_factory.hpp:77] Creating layer inception_resnet_v2_c9_up_bn
I0905 18:39:29.000643 31924 net.cpp:100] Creating Layer inception_resnet_v2_c9_up_bn
I0905 18:39:29.000651 31924 net.cpp:434] inception_resnet_v2_c9_up_bn <- inception_resnet_v2_c9_up
I0905 18:39:29.000663 31924 net.cpp:395] inception_resnet_v2_c9_up_bn -> inception_resnet_v2_c9_up (in-place)
I0905 18:39:29.001022 31924 net.cpp:150] Setting up inception_resnet_v2_c9_up_bn
I0905 18:39:29.001035 31924 net.cpp:157] Top shape: 20 2080 8 8 (2662400)
I0905 18:39:29.001041 31924 net.cpp:165] Memory required for data: 12619037280
I0905 18:39:29.001060 31924 layer_factory.hpp:77] Creating layer inception_resnet_v2_c9_up_scale
I0905 18:39:29.001072 31924 net.cpp:100] Creating Layer inception_resnet_v2_c9_up_scale
I0905 18:39:29.001080 31924 net.cpp:434] inception_resnet_v2_c9_up_scale <- inception_resnet_v2_c9_up
I0905 18:39:29.001087 31924 net.cpp:395] inception_resnet_v2_c9_up_scale -> inception_resnet_v2_c9_up (in-place)
I0905 18:39:29.001170 31924 layer_factory.hpp:77] Creating layer inception_resnet_v2_c9_up_scale
I0905 18:39:29.001390 31924 net.cpp:150] Setting up inception_resnet_v2_c9_up_scale
I0905 18:39:29.001404 31924 net.cpp:157] Top shape: 20 2080 8 8 (2662400)
I0905 18:39:29.001410 31924 net.cpp:165] Memory required for data: 12629686880
I0905 18:39:29.001418 31924 layer_factory.hpp:77] Creating layer inception_resnet_v2_c9_residual_eltwise
I0905 18:39:29.001430 31924 net.cpp:100] Creating Layer inception_resnet_v2_c9_residual_eltwise
I0905 18:39:29.001437 31924 net.cpp:434] inception_resnet_v2_c9_residual_eltwise <- inception_resnet_v2_c8_residual_eltwise_inception_resnet_v2_c8_residual_eltwise_relu_0_split_2
I0905 18:39:29.001446 31924 net.cpp:434] inception_resnet_v2_c9_residual_eltwise <- inception_resnet_v2_c9_up
I0905 18:39:29.001456 31924 net.cpp:408] inception_resnet_v2_c9_residual_eltwise -> inception_resnet_v2_c9_residual_eltwise
I0905 18:39:29.001497 31924 net.cpp:150] Setting up inception_resnet_v2_c9_residual_eltwise
I0905 18:39:29.001507 31924 net.cpp:157] Top shape: 20 2080 8 8 (2662400)
I0905 18:39:29.001513 31924 net.cpp:165] Memory required for data: 12640336480
I0905 18:39:29.001519 31924 layer_factory.hpp:77] Creating layer inception_resnet_v2_c9_residual_eltwise_relu
I0905 18:39:29.001533 31924 net.cpp:100] Creating Layer inception_resnet_v2_c9_residual_eltwise_relu
I0905 18:39:29.001540 31924 net.cpp:434] inception_resnet_v2_c9_residual_eltwise_relu <- inception_resnet_v2_c9_residual_eltwise
I0905 18:39:29.001549 31924 net.cpp:395] inception_resnet_v2_c9_residual_eltwise_relu -> inception_resnet_v2_c9_residual_eltwise (in-place)
I0905 18:39:29.001792 31924 net.cpp:150] Setting up inception_resnet_v2_c9_residual_eltwise_relu
I0905 18:39:29.001806 31924 net.cpp:157] Top shape: 20 2080 8 8 (2662400)
I0905 18:39:29.001812 31924 net.cpp:165] Memory required for data: 12650986080
I0905 18:39:29.001818 31924 layer_factory.hpp:77] Creating layer inception_resnet_v2_c9_residual_eltwise_inception_resnet_v2_c9_residual_eltwise_relu_0_split
I0905 18:39:29.001832 31924 net.cpp:100] Creating Layer inception_resnet_v2_c9_residual_eltwise_inception_resnet_v2_c9_residual_eltwise_relu_0_split
I0905 18:39:29.001838 31924 net.cpp:434] inception_resnet_v2_c9_residual_eltwise_inception_resnet_v2_c9_residual_eltwise_relu_0_split <- inception_resnet_v2_c9_residual_eltwise
I0905 18:39:29.001847 31924 net.cpp:408] inception_resnet_v2_c9_residual_eltwise_inception_resnet_v2_c9_residual_eltwise_relu_0_split -> inception_resnet_v2_c9_residual_eltwise_inception_resnet_v2_c9_residual_eltwise_relu_0_split_0
I0905 18:39:29.001860 31924 net.cpp:408] inception_resnet_v2_c9_residual_eltwise_inception_resnet_v2_c9_residual_eltwise_relu_0_split -> inception_resnet_v2_c9_residual_eltwise_inception_resnet_v2_c9_residual_eltwise_relu_0_split_1
I0905 18:39:29.001870 31924 net.cpp:408] inception_resnet_v2_c9_residual_eltwise_inception_resnet_v2_c9_residual_eltwise_relu_0_split -> inception_resnet_v2_c9_residual_eltwise_inception_resnet_v2_c9_residual_eltwise_relu_0_split_2
I0905 18:39:29.001962 31924 net.cpp:150] Setting up inception_resnet_v2_c9_residual_eltwise_inception_resnet_v2_c9_residual_eltwise_relu_0_split
I0905 18:39:29.001973 31924 net.cpp:157] Top shape: 20 2080 8 8 (2662400)
I0905 18:39:29.001981 31924 net.cpp:157] Top shape: 20 2080 8 8 (2662400)
I0905 18:39:29.001988 31924 net.cpp:157] Top shape: 20 2080 8 8 (2662400)
I0905 18:39:29.001994 31924 net.cpp:165] Memory required for data: 12682934880
I0905 18:39:29.002002 31924 layer_factory.hpp:77] Creating layer inception_resnet_v2_c10_1x1
I0905 18:39:29.002022 31924 net.cpp:100] Creating Layer inception_resnet_v2_c10_1x1
I0905 18:39:29.002032 31924 net.cpp:434] inception_resnet_v2_c10_1x1 <- inception_resnet_v2_c9_residual_eltwise_inception_resnet_v2_c9_residual_eltwise_relu_0_split_0
I0905 18:39:29.002043 31924 net.cpp:408] inception_resnet_v2_c10_1x1 -> inception_resnet_v2_c10_1x1
I0905 18:39:29.009577 31924 net.cpp:150] Setting up inception_resnet_v2_c10_1x1
I0905 18:39:29.009598 31924 net.cpp:157] Top shape: 20 192 8 8 (245760)
I0905 18:39:29.009605 31924 net.cpp:165] Memory required for data: 12683917920
I0905 18:39:29.009616 31924 layer_factory.hpp:77] Creating layer inception_resnet_v2_c10_1x1_bn
I0905 18:39:29.009626 31924 net.cpp:100] Creating Layer inception_resnet_v2_c10_1x1_bn
I0905 18:39:29.009634 31924 net.cpp:434] inception_resnet_v2_c10_1x1_bn <- inception_resnet_v2_c10_1x1
I0905 18:39:29.009644 31924 net.cpp:395] inception_resnet_v2_c10_1x1_bn -> inception_resnet_v2_c10_1x1 (in-place)
I0905 18:39:29.009979 31924 net.cpp:150] Setting up inception_resnet_v2_c10_1x1_bn
I0905 18:39:29.009991 31924 net.cpp:157] Top shape: 20 192 8 8 (245760)
I0905 18:39:29.009997 31924 net.cpp:165] Memory required for data: 12684900960
I0905 18:39:29.010010 31924 layer_factory.hpp:77] Creating layer inception_resnet_v2_c10_1x1_scale
I0905 18:39:29.010020 31924 net.cpp:100] Creating Layer inception_resnet_v2_c10_1x1_scale
I0905 18:39:29.010026 31924 net.cpp:434] inception_resnet_v2_c10_1x1_scale <- inception_resnet_v2_c10_1x1
I0905 18:39:29.010035 31924 net.cpp:395] inception_resnet_v2_c10_1x1_scale -> inception_resnet_v2_c10_1x1 (in-place)
I0905 18:39:29.010102 31924 layer_factory.hpp:77] Creating layer inception_resnet_v2_c10_1x1_scale
I0905 18:39:29.010298 31924 net.cpp:150] Setting up inception_resnet_v2_c10_1x1_scale
I0905 18:39:29.010310 31924 net.cpp:157] Top shape: 20 192 8 8 (245760)
I0905 18:39:29.010316 31924 net.cpp:165] Memory required for data: 12685884000
I0905 18:39:29.010326 31924 layer_factory.hpp:77] Creating layer inception_resnet_v2_c10_1x1_relu
I0905 18:39:29.010335 31924 net.cpp:100] Creating Layer inception_resnet_v2_c10_1x1_relu
I0905 18:39:29.010342 31924 net.cpp:434] inception_resnet_v2_c10_1x1_relu <- inception_resnet_v2_c10_1x1
I0905 18:39:29.010352 31924 net.cpp:395] inception_resnet_v2_c10_1x1_relu -> inception_resnet_v2_c10_1x1 (in-place)
I0905 18:39:29.011771 31924 net.cpp:150] Setting up inception_resnet_v2_c10_1x1_relu
I0905 18:39:29.011790 31924 net.cpp:157] Top shape: 20 192 8 8 (245760)
I0905 18:39:29.011796 31924 net.cpp:165] Memory required for data: 12686867040
I0905 18:39:29.011803 31924 layer_factory.hpp:77] Creating layer inception_resnet_v2_c10_1x3_reduce
I0905 18:39:29.011819 31924 net.cpp:100] Creating Layer inception_resnet_v2_c10_1x3_reduce
I0905 18:39:29.011828 31924 net.cpp:434] inception_resnet_v2_c10_1x3_reduce <- inception_resnet_v2_c9_residual_eltwise_inception_resnet_v2_c9_residual_eltwise_relu_0_split_1
I0905 18:39:29.011842 31924 net.cpp:408] inception_resnet_v2_c10_1x3_reduce -> inception_resnet_v2_c10_1x3_reduce
I0905 18:39:29.018239 31924 net.cpp:150] Setting up inception_resnet_v2_c10_1x3_reduce
I0905 18:39:29.018260 31924 net.cpp:157] Top shape: 20 192 8 8 (245760)
I0905 18:39:29.018266 31924 net.cpp:165] Memory required for data: 12687850080
I0905 18:39:29.018276 31924 layer_factory.hpp:77] Creating layer inception_resnet_v2_c10_1x3_reduce_bn
I0905 18:39:29.018291 31924 net.cpp:100] Creating Layer inception_resnet_v2_c10_1x3_reduce_bn
I0905 18:39:29.018299 31924 net.cpp:434] inception_resnet_v2_c10_1x3_reduce_bn <- inception_resnet_v2_c10_1x3_reduce
I0905 18:39:29.018311 31924 net.cpp:395] inception_resnet_v2_c10_1x3_reduce_bn -> inception_resnet_v2_c10_1x3_reduce (in-place)
I0905 18:39:29.018658 31924 net.cpp:150] Setting up inception_resnet_v2_c10_1x3_reduce_bn
I0905 18:39:29.018671 31924 net.cpp:157] Top shape: 20 192 8 8 (245760)
I0905 18:39:29.018678 31924 net.cpp:165] Memory required for data: 12688833120
I0905 18:39:29.018690 31924 layer_factory.hpp:77] Creating layer inception_resnet_v2_c10_1x3_reduce_scale
I0905 18:39:29.018708 31924 net.cpp:100] Creating Layer inception_resnet_v2_c10_1x3_reduce_scale
I0905 18:39:29.018715 31924 net.cpp:434] inception_resnet_v2_c10_1x3_reduce_scale <- inception_resnet_v2_c10_1x3_reduce
I0905 18:39:29.018725 31924 net.cpp:395] inception_resnet_v2_c10_1x3_reduce_scale -> inception_resnet_v2_c10_1x3_reduce (in-place)
I0905 18:39:29.018793 31924 layer_factory.hpp:77] Creating layer inception_resnet_v2_c10_1x3_reduce_scale
I0905 18:39:29.018990 31924 net.cpp:150] Setting up inception_resnet_v2_c10_1x3_reduce_scale
I0905 18:39:29.019002 31924 net.cpp:157] Top shape: 20 192 8 8 (245760)
I0905 18:39:29.019008 31924 net.cpp:165] Memory required for data: 12689816160
I0905 18:39:29.019017 31924 layer_factory.hpp:77] Creating layer inception_resnet_v2_c10_1x3_reduce_relu
I0905 18:39:29.019026 31924 net.cpp:100] Creating Layer inception_resnet_v2_c10_1x3_reduce_relu
I0905 18:39:29.019033 31924 net.cpp:434] inception_resnet_v2_c10_1x3_reduce_relu <- inception_resnet_v2_c10_1x3_reduce
I0905 18:39:29.019044 31924 net.cpp:395] inception_resnet_v2_c10_1x3_reduce_relu -> inception_resnet_v2_c10_1x3_reduce (in-place)
I0905 18:39:29.020469 31924 net.cpp:150] Setting up inception_resnet_v2_c10_1x3_reduce_relu
I0905 18:39:29.020488 31924 net.cpp:157] Top shape: 20 192 8 8 (245760)
I0905 18:39:29.020494 31924 net.cpp:165] Memory required for data: 12690799200
I0905 18:39:29.020501 31924 layer_factory.hpp:77] Creating layer inception_resnet_v2_c10_1x3
I0905 18:39:29.020516 31924 net.cpp:100] Creating Layer inception_resnet_v2_c10_1x3
I0905 18:39:29.020524 31924 net.cpp:434] inception_resnet_v2_c10_1x3 <- inception_resnet_v2_c10_1x3_reduce
I0905 18:39:29.020536 31924 net.cpp:408] inception_resnet_v2_c10_1x3 -> inception_resnet_v2_c10_1x3
I0905 18:39:29.026039 31924 net.cpp:150] Setting up inception_resnet_v2_c10_1x3
I0905 18:39:29.026059 31924 net.cpp:157] Top shape: 20 224 8 8 (286720)
I0905 18:39:29.026065 31924 net.cpp:165] Memory required for data: 12691946080
I0905 18:39:29.026077 31924 layer_factory.hpp:77] Creating layer inception_resnet_v2_c10_1x3_bn
I0905 18:39:29.026088 31924 net.cpp:100] Creating Layer inception_resnet_v2_c10_1x3_bn
I0905 18:39:29.026096 31924 net.cpp:434] inception_resnet_v2_c10_1x3_bn <- inception_resnet_v2_c10_1x3
I0905 18:39:29.026105 31924 net.cpp:395] inception_resnet_v2_c10_1x3_bn -> inception_resnet_v2_c10_1x3 (in-place)
I0905 18:39:29.026456 31924 net.cpp:150] Setting up inception_resnet_v2_c10_1x3_bn
I0905 18:39:29.026473 31924 net.cpp:157] Top shape: 20 224 8 8 (286720)
I0905 18:39:29.026479 31924 net.cpp:165] Memory required for data: 12693092960
I0905 18:39:29.026491 31924 layer_factory.hpp:77] Creating layer inception_resnet_v2_c10_1x3_scale
I0905 18:39:29.026500 31924 net.cpp:100] Creating Layer inception_resnet_v2_c10_1x3_scale
I0905 18:39:29.026507 31924 net.cpp:434] inception_resnet_v2_c10_1x3_scale <- inception_resnet_v2_c10_1x3
I0905 18:39:29.026516 31924 net.cpp:395] inception_resnet_v2_c10_1x3_scale -> inception_resnet_v2_c10_1x3 (in-place)
I0905 18:39:29.026585 31924 layer_factory.hpp:77] Creating layer inception_resnet_v2_c10_1x3_scale
I0905 18:39:29.026787 31924 net.cpp:150] Setting up inception_resnet_v2_c10_1x3_scale
I0905 18:39:29.026798 31924 net.cpp:157] Top shape: 20 224 8 8 (286720)
I0905 18:39:29.026803 31924 net.cpp:165] Memory required for data: 12694239840
I0905 18:39:29.026818 31924 layer_factory.hpp:77] Creating layer inception_resnet_v2_c10_1x3_relu
I0905 18:39:29.026828 31924 net.cpp:100] Creating Layer inception_resnet_v2_c10_1x3_relu
I0905 18:39:29.026836 31924 net.cpp:434] inception_resnet_v2_c10_1x3_relu <- inception_resnet_v2_c10_1x3
I0905 18:39:29.026844 31924 net.cpp:395] inception_resnet_v2_c10_1x3_relu -> inception_resnet_v2_c10_1x3 (in-place)
I0905 18:39:29.027091 31924 net.cpp:150] Setting up inception_resnet_v2_c10_1x3_relu
I0905 18:39:29.027104 31924 net.cpp:157] Top shape: 20 224 8 8 (286720)
I0905 18:39:29.027110 31924 net.cpp:165] Memory required for data: 12695386720
I0905 18:39:29.027117 31924 layer_factory.hpp:77] Creating layer inception_resnet_v2_c10_3x1
I0905 18:39:29.027138 31924 net.cpp:100] Creating Layer inception_resnet_v2_c10_3x1
I0905 18:39:29.027146 31924 net.cpp:434] inception_resnet_v2_c10_3x1 <- inception_resnet_v2_c10_1x3
I0905 18:39:29.027158 31924 net.cpp:408] inception_resnet_v2_c10_3x1 -> inception_resnet_v2_c10_3x1
I0905 18:39:29.030910 31924 net.cpp:150] Setting up inception_resnet_v2_c10_3x1
I0905 18:39:29.030930 31924 net.cpp:157] Top shape: 20 256 8 8 (327680)
I0905 18:39:29.030936 31924 net.cpp:165] Memory required for data: 12696697440
I0905 18:39:29.030947 31924 layer_factory.hpp:77] Creating layer inception_resnet_v2_c10_3x1_bn
I0905 18:39:29.030958 31924 net.cpp:100] Creating Layer inception_resnet_v2_c10_3x1_bn
I0905 18:39:29.030966 31924 net.cpp:434] inception_resnet_v2_c10_3x1_bn <- inception_resnet_v2_c10_3x1
I0905 18:39:29.030975 31924 net.cpp:395] inception_resnet_v2_c10_3x1_bn -> inception_resnet_v2_c10_3x1 (in-place)
I0905 18:39:29.031308 31924 net.cpp:150] Setting up inception_resnet_v2_c10_3x1_bn
I0905 18:39:29.031321 31924 net.cpp:157] Top shape: 20 256 8 8 (327680)
I0905 18:39:29.031327 31924 net.cpp:165] Memory required for data: 12698008160
I0905 18:39:29.031338 31924 layer_factory.hpp:77] Creating layer inception_resnet_v2_c10_3x1_scale
I0905 18:39:29.031350 31924 net.cpp:100] Creating Layer inception_resnet_v2_c10_3x1_scale
I0905 18:39:29.031358 31924 net.cpp:434] inception_resnet_v2_c10_3x1_scale <- inception_resnet_v2_c10_3x1
I0905 18:39:29.031365 31924 net.cpp:395] inception_resnet_v2_c10_3x1_scale -> inception_resnet_v2_c10_3x1 (in-place)
I0905 18:39:29.031435 31924 layer_factory.hpp:77] Creating layer inception_resnet_v2_c10_3x1_scale
I0905 18:39:29.031622 31924 net.cpp:150] Setting up inception_resnet_v2_c10_3x1_scale
I0905 18:39:29.031635 31924 net.cpp:157] Top shape: 20 256 8 8 (327680)
I0905 18:39:29.031641 31924 net.cpp:165] Memory required for data: 12699318880
I0905 18:39:29.031649 31924 layer_factory.hpp:77] Creating layer inception_resnet_v2_c10_3x1_relu
I0905 18:39:29.031658 31924 net.cpp:100] Creating Layer inception_resnet_v2_c10_3x1_relu
I0905 18:39:29.031666 31924 net.cpp:434] inception_resnet_v2_c10_3x1_relu <- inception_resnet_v2_c10_3x1
I0905 18:39:29.031677 31924 net.cpp:395] inception_resnet_v2_c10_3x1_relu -> inception_resnet_v2_c10_3x1 (in-place)
I0905 18:39:29.031927 31924 net.cpp:150] Setting up inception_resnet_v2_c10_3x1_relu
I0905 18:39:29.031940 31924 net.cpp:157] Top shape: 20 256 8 8 (327680)
I0905 18:39:29.031946 31924 net.cpp:165] Memory required for data: 12700629600
I0905 18:39:29.031954 31924 layer_factory.hpp:77] Creating layer inception_resnet_v2_c10_concat
I0905 18:39:29.031965 31924 net.cpp:100] Creating Layer inception_resnet_v2_c10_concat
I0905 18:39:29.031971 31924 net.cpp:434] inception_resnet_v2_c10_concat <- inception_resnet_v2_c10_1x1
I0905 18:39:29.031980 31924 net.cpp:434] inception_resnet_v2_c10_concat <- inception_resnet_v2_c10_3x1
I0905 18:39:29.031987 31924 net.cpp:408] inception_resnet_v2_c10_concat -> inception_resnet_v2_c10_concat
I0905 18:39:29.032035 31924 net.cpp:150] Setting up inception_resnet_v2_c10_concat
I0905 18:39:29.032047 31924 net.cpp:157] Top shape: 20 448 8 8 (573440)
I0905 18:39:29.032052 31924 net.cpp:165] Memory required for data: 12702923360
I0905 18:39:29.032058 31924 layer_factory.hpp:77] Creating layer inception_resnet_v2_c10_up
I0905 18:39:29.032079 31924 net.cpp:100] Creating Layer inception_resnet_v2_c10_up
I0905 18:39:29.032088 31924 net.cpp:434] inception_resnet_v2_c10_up <- inception_resnet_v2_c10_concat
I0905 18:39:29.032099 31924 net.cpp:408] inception_resnet_v2_c10_up -> inception_resnet_v2_c10_up
I0905 18:39:29.044564 31924 net.cpp:150] Setting up inception_resnet_v2_c10_up
I0905 18:39:29.044584 31924 net.cpp:157] Top shape: 20 2080 8 8 (2662400)
I0905 18:39:29.044589 31924 net.cpp:165] Memory required for data: 12713572960
I0905 18:39:29.044600 31924 layer_factory.hpp:77] Creating layer inception_resnet_v2_c10_up_bn
I0905 18:39:29.044610 31924 net.cpp:100] Creating Layer inception_resnet_v2_c10_up_bn
I0905 18:39:29.044626 31924 net.cpp:434] inception_resnet_v2_c10_up_bn <- inception_resnet_v2_c10_up
I0905 18:39:29.044638 31924 net.cpp:395] inception_resnet_v2_c10_up_bn -> inception_resnet_v2_c10_up (in-place)
I0905 18:39:29.045011 31924 net.cpp:150] Setting up inception_resnet_v2_c10_up_bn
I0905 18:39:29.045024 31924 net.cpp:157] Top shape: 20 2080 8 8 (2662400)
I0905 18:39:29.045030 31924 net.cpp:165] Memory required for data: 12724222560
I0905 18:39:29.045042 31924 layer_factory.hpp:77] Creating layer inception_resnet_v2_c10_up_scale
I0905 18:39:29.045053 31924 net.cpp:100] Creating Layer inception_resnet_v2_c10_up_scale
I0905 18:39:29.045059 31924 net.cpp:434] inception_resnet_v2_c10_up_scale <- inception_resnet_v2_c10_up
I0905 18:39:29.045070 31924 net.cpp:395] inception_resnet_v2_c10_up_scale -> inception_resnet_v2_c10_up (in-place)
I0905 18:39:29.045151 31924 layer_factory.hpp:77] Creating layer inception_resnet_v2_c10_up_scale
I0905 18:39:29.045373 31924 net.cpp:150] Setting up inception_resnet_v2_c10_up_scale
I0905 18:39:29.045385 31924 net.cpp:157] Top shape: 20 2080 8 8 (2662400)
I0905 18:39:29.045392 31924 net.cpp:165] Memory required for data: 12734872160
I0905 18:39:29.045402 31924 layer_factory.hpp:77] Creating layer inception_resnet_v2_c10_residual_eltwise
I0905 18:39:29.045410 31924 net.cpp:100] Creating Layer inception_resnet_v2_c10_residual_eltwise
I0905 18:39:29.045418 31924 net.cpp:434] inception_resnet_v2_c10_residual_eltwise <- inception_resnet_v2_c9_residual_eltwise_inception_resnet_v2_c9_residual_eltwise_relu_0_split_2
I0905 18:39:29.045426 31924 net.cpp:434] inception_resnet_v2_c10_residual_eltwise <- inception_resnet_v2_c10_up
I0905 18:39:29.045438 31924 net.cpp:408] inception_resnet_v2_c10_residual_eltwise -> inception_resnet_v2_c10_residual_eltwise
I0905 18:39:29.045480 31924 net.cpp:150] Setting up inception_resnet_v2_c10_residual_eltwise
I0905 18:39:29.045492 31924 net.cpp:157] Top shape: 20 2080 8 8 (2662400)
I0905 18:39:29.045498 31924 net.cpp:165] Memory required for data: 12745521760
I0905 18:39:29.045505 31924 layer_factory.hpp:77] Creating layer conv6_1x1
I0905 18:39:29.045519 31924 net.cpp:100] Creating Layer conv6_1x1
I0905 18:39:29.045526 31924 net.cpp:434] conv6_1x1 <- inception_resnet_v2_c10_residual_eltwise
I0905 18:39:29.045537 31924 net.cpp:408] conv6_1x1 -> conv6_1x1
I0905 18:39:29.079432 31924 net.cpp:150] Setting up conv6_1x1
I0905 18:39:29.079455 31924 net.cpp:157] Top shape: 20 1536 8 8 (1966080)
I0905 18:39:29.079463 31924 net.cpp:165] Memory required for data: 12753386080
I0905 18:39:29.079473 31924 layer_factory.hpp:77] Creating layer conv6_1x1_bn
I0905 18:39:29.079485 31924 net.cpp:100] Creating Layer conv6_1x1_bn
I0905 18:39:29.079493 31924 net.cpp:434] conv6_1x1_bn <- conv6_1x1
I0905 18:39:29.079502 31924 net.cpp:395] conv6_1x1_bn -> conv6_1x1 (in-place)
I0905 18:39:29.079864 31924 net.cpp:150] Setting up conv6_1x1_bn
I0905 18:39:29.079876 31924 net.cpp:157] Top shape: 20 1536 8 8 (1966080)
I0905 18:39:29.079884 31924 net.cpp:165] Memory required for data: 12761250400
I0905 18:39:29.079897 31924 layer_factory.hpp:77] Creating layer conv6_1x1_scale
I0905 18:39:29.079906 31924 net.cpp:100] Creating Layer conv6_1x1_scale
I0905 18:39:29.079913 31924 net.cpp:434] conv6_1x1_scale <- conv6_1x1
I0905 18:39:29.079921 31924 net.cpp:395] conv6_1x1_scale -> conv6_1x1 (in-place)
I0905 18:39:29.080005 31924 layer_factory.hpp:77] Creating layer conv6_1x1_scale
I0905 18:39:29.080220 31924 net.cpp:150] Setting up conv6_1x1_scale
I0905 18:39:29.080234 31924 net.cpp:157] Top shape: 20 1536 8 8 (1966080)
I0905 18:39:29.080240 31924 net.cpp:165] Memory required for data: 12769114720
I0905 18:39:29.080250 31924 layer_factory.hpp:77] Creating layer conv6_1x1_relu
I0905 18:39:29.080260 31924 net.cpp:100] Creating Layer conv6_1x1_relu
I0905 18:39:29.080267 31924 net.cpp:434] conv6_1x1_relu <- conv6_1x1
I0905 18:39:29.080276 31924 net.cpp:395] conv6_1x1_relu -> conv6_1x1 (in-place)
I0905 18:39:29.080528 31924 net.cpp:150] Setting up conv6_1x1_relu
I0905 18:39:29.080541 31924 net.cpp:157] Top shape: 20 1536 8 8 (1966080)
I0905 18:39:29.080556 31924 net.cpp:165] Memory required for data: 12776979040
I0905 18:39:29.080564 31924 layer_factory.hpp:77] Creating layer pool_8x8_s1
I0905 18:39:29.080576 31924 net.cpp:100] Creating Layer pool_8x8_s1
I0905 18:39:29.080584 31924 net.cpp:434] pool_8x8_s1 <- conv6_1x1
I0905 18:39:29.080595 31924 net.cpp:408] pool_8x8_s1 -> pool_8x8_s1
I0905 18:39:29.080876 31924 net.cpp:150] Setting up pool_8x8_s1
I0905 18:39:29.080891 31924 net.cpp:157] Top shape: 20 1536 1 1 (30720)
I0905 18:39:29.080898 31924 net.cpp:165] Memory required for data: 12777101920
I0905 18:39:29.080904 31924 layer_factory.hpp:77] Creating layer pool_8x8_s1_drop
I0905 18:39:29.080915 31924 net.cpp:100] Creating Layer pool_8x8_s1_drop
I0905 18:39:29.080922 31924 net.cpp:434] pool_8x8_s1_drop <- pool_8x8_s1
I0905 18:39:29.080932 31924 net.cpp:408] pool_8x8_s1_drop -> pool_8x8_s1_drop
I0905 18:39:29.081001 31924 net.cpp:150] Setting up pool_8x8_s1_drop
I0905 18:39:29.081012 31924 net.cpp:157] Top shape: 20 1536 1 1 (30720)
I0905 18:39:29.081017 31924 net.cpp:165] Memory required for data: 12777224800
I0905 18:39:29.081024 31924 layer_factory.hpp:77] Creating layer classifier
I0905 18:39:29.081038 31924 net.cpp:100] Creating Layer classifier
I0905 18:39:29.081045 31924 net.cpp:434] classifier <- pool_8x8_s1_drop
I0905 18:39:29.081058 31924 net.cpp:408] classifier -> classifier
I0905 18:39:29.097106 31924 net.cpp:150] Setting up classifier
I0905 18:39:29.097127 31924 net.cpp:157] Top shape: 20 1001 (20020)
I0905 18:39:29.097133 31924 net.cpp:165] Memory required for data: 12777304880
I0905 18:39:29.097144 31924 layer_factory.hpp:77] Creating layer classifier_classifier_0_split
I0905 18:39:29.097157 31924 net.cpp:100] Creating Layer classifier_classifier_0_split
I0905 18:39:29.097164 31924 net.cpp:434] classifier_classifier_0_split <- classifier
I0905 18:39:29.097173 31924 net.cpp:408] classifier_classifier_0_split -> classifier_classifier_0_split_0
I0905 18:39:29.097183 31924 net.cpp:408] classifier_classifier_0_split -> classifier_classifier_0_split_1
I0905 18:39:29.097254 31924 net.cpp:150] Setting up classifier_classifier_0_split
I0905 18:39:29.097265 31924 net.cpp:157] Top shape: 20 1001 (20020)
I0905 18:39:29.097272 31924 net.cpp:157] Top shape: 20 1001 (20020)
I0905 18:39:29.097278 31924 net.cpp:165] Memory required for data: 12777465040
I0905 18:39:29.097285 31924 layer_factory.hpp:77] Creating layer accuracy_top1
I0905 18:39:29.097293 31924 net.cpp:100] Creating Layer accuracy_top1
I0905 18:39:29.097301 31924 net.cpp:434] accuracy_top1 <- classifier_classifier_0_split_0
I0905 18:39:29.097309 31924 net.cpp:434] accuracy_top1 <- label_data_1_split_0
…
